checkpoint1.pth (torch_old, 21069 bytes, 6 tensors)

fc1.weight f4 [64, 8]
000000 a9 04 ae 3e 31 12 2a 3f 5a 19 56 bf 98 32 89 bf
       0.3398793 0.6643401 -0.83632433 -1.0718565
000010 c7 69 e3 3d 9e 1b 18 3f 66 ab af 3d 81 00 dd 3e
       0.1110416 0.5941714 0.085776135 0.43164447
000020 35 b1 1f 3e 39 c9 1f 3e 2f f1 ae bc ff 5f c9 bd
       0.15594943 0.15604104 -0.02135524 -0.09832763
000030 18 19 75 bd dc 16 9c bf fc f5 85 bf f6 05 7d 3e
       -0.059838384 -1.2194476 -1.0465693 0.24709305
000040 1d ae 0d 3f bd 45 24 3f 96 25 c9 be b0 26 86 bf
       0.553438 0.6416891 -0.39286488 -1.0480556
000050 a6 ee 03 3f a4 78 61 3f 7c 1e 38 3e 5b 7d b4 3e
       0.51536024 0.8807471 0.17980379 0.3525189
000060 56 ec 08 3d 32 d2 95 bd 6a 4e 13 3f 7a 3d 3e bf
       0.033428513 -0.07315482 0.57541525 -0.74312556
000070 5c 86 f7 bf 27 1e e9 3d a4 d8 e7 3c 22 95 eb 3d
       -1.9337878 0.11382704 0.028301544 0.11503054
000080 9d 0f 45 bf eb 48 2b bf 6d 22 4f bf 7f fa 80 bf
       -0.7697695 -0.6690814 -0.80911905 -1.0076445
000090 0d 52 16 3f 46 00 eb 3c ed e3 42 bd e5 3b a6 3e
       0.5871895 0.028686654 -0.04758065 0.3246757
0000a0 ca 9d 0f 3e 35 ff 2d bf bf 41 0d 3f 42 4a e1 be
       0.14025036 -0.6796754 0.55178446 -0.44001967
0000b0 d0 5f a8 be a6 ad 24 bf b4 ad 8b 3e 1f 3b 17 3f
       -0.328856 -0.64327466 0.27280962 0.59074587
0000c0 bf 89 e4 be 54 b4 f2 3a cc 40 37 3c b4 35 b7 3e
       -0.44636342 0.0018516877 0.011184882 0.3578316
0000d0 3d 55 c6 3e 77 ce 02 3f c0 e4 f6 3e 5a 60 56 be
       0.38736907 0.5109629 0.48221397 -0.20935193
0000e0 ed f5 bb 3e 55 87 91 bf d7 a3 87 bd d6 25 a3 bf
       0.36711064 -1.1369425 -0.06623047 -1.2745922
0000f0 e0 d0 b2 3e bf 4a fd bd 6d e6 b7 be 0e 46 c5 3d
       0.34924984 -0.12367772 -0.35917988 0.096325025
000100 e2 25 93 3e fa 39 47 bd 85 15 72 3e 06 19 47 bf
       0.2873984 -0.048639275 0.23641022 -0.7777256
000110 2f d1 61 3c 7d b6 53 3f 8b 97 e5 be c4 ae 40 be
       0.013782783 0.8270033 -0.4484218 -0.18816668
000120 59 20 0c 3e 0e 04 e8 3e 70 8a 53 3f 91 b0 18 3f
       0.13684215 0.45315593 0.82633114 0.5964442
000130 7f 4b 7f bf 44 56 15 bf 78 82 83 bf 1f 2c 11 bf
       -0.9972457 -0.58334756 -1.0274191 -0.5670795
000140 70 98 91 be 5b cb 48 3f 2d ad 7c 3e 9d 87 35 bf
       -0.28436613 0.78435296 0.24675436 -0.70910054
000150 e6 65 1d 3c ad 57 ed 3e 49 8e 72 be c3 e7 33 bf
       0.009606814 0.46355954 -0.2368709 -0.70275515
000160 57 06 05 be 37 2b 9c 3e 44 a0 c7 be 9a df e3 bd
       -0.129907 0.3050172 -0.3898946 -0.11126633
000170 45 cd 0a 3f 9e 29 16 3f c7 c6 85 bd 4c be 4a bf
       0.54219466 0.5865725 -0.065320544 -0.7919662
000180 7b b4 ab 3e 20 06 a3 3e ef 92 91 3d 71 6e 1c 3d
       0.33536133 0.3184061 0.071081035 0.038191263
000190 89 33 0e be 7f c0 64 3f fd 2f b9 3e c0 db 5b bf
       -0.13886847 0.89356226 0.36169425 -0.85882187
0001a0 ba a5 72 bf 77 14 46 bf 58 1a 35 bf 4a af ff be
       -0.9478413 -0.77374977 -0.7074332 -0.49938422
0001b0 b5 35 58 3e 55 c6 48 bd 2c f9 bd 3d 6c d4 18 3f
       0.21114238 -0.04901727 0.092760414 0.5969913
0001c0 76 11 5e bd fb b0 33 3f 26 6d 8c 3e 2d 8b 6d bf
       -0.05421587 0.70191926 0.27427024 -0.9279049
0001d0 3d c1 ae be 4c 88 e2 3e d9 34 ab ba bc 9c a8 be
       -0.34131804 0.4424461 -0.0013062014 -0.3293208
0001e0 1a 0d b7 3e 13 92 a3 3e b8 ce b0 3e 04 8f d2 3e
       0.35752183 0.31947383 0.34532714 0.41124737
0001f0 96 e3 3d bf 63 b2 3e bf 3a 7e 86 bf 25 a2 99 be
       -0.74175394 -0.74490947 -1.0507271 -0.3000652
000200 da 16 95 bc f5 95 af be a1 1d ca 3e bd d9 39 be
       -0.018199373 -0.34294096 0.3947573 -0.18149467
000210 89 c5 f3 be 82 04 95 be 13 56 e7 3e 1e 86 ea 3e
       -0.47611645 -0.29105002 0.45182857 0.45805448
000220 08 07 b5 bb 83 af 43 bd 72 bf e7 3d e2 c8 32 3f
       -0.00552452 -0.047774803 0.11315812 0.6983777
000230 26 ba a3 3d e0 b0 e3 3e 46 f5 51 3f bd 29 89 be
       0.07994489 0.44470882 0.8201488 -0.26789656
000240 2e 20 f5 bd bf 22 e2 bd 71 4a c6 be 0a e5 44 bf
       -0.119690284 -0.110417835 -0.3872867 -0.76911986
000250 f1 65 91 bd 23 48 90 bf 0a 53 ae bf ae f4 18 bf
       -0.07099522 -1.1272014 -1.3619092 -0.5974835
000260 3a 87 06 bd 29 b0 17 3f af 0c 1d 3e f1 bd 7b bf
       -0.032843806 0.59253174 0.1533687 -0.983367
000270 3e 68 bc 3e 6e f4 9d bf 48 03 14 be 00 fe 6a be
       0.3679828 -1.2340219 -0.14454377 -0.22948456
000280 4c ab 73 3e b0 fa fe 3e a3 1e 58 bf 10 1a 48 bf
       0.23795813 0.49800634 -0.8442175 -0.7816477
000290 56 9a 98 be d9 1e 73 bd 36 61 b7 be 53 13 d5 be
       -0.2980525 -0.05935559 -0.35816354 -0.41616306
0002a0 11 59 2c 3d ae ae 8e bc 24 90 05 3f 41 ec 61 3f
       0.042077128 -0.017417278 0.52173066 0.8825112
0002b0 c4 0f 4c bb 7f b8 48 3f 2a 48 77 3e 00 6b 0e 3f
       -0.0031137327 0.7840652 0.24148622 0.5563202
0002c0 a0 85 88 3e 4d 1f a8 bf 59 a4 78 3f aa 95 1d bf
       0.26664448 -1.3134552 0.97125775 -0.61556494
0002d0 d5 76 f8 bd 75 03 96 be a3 10 92 3e d6 9f 98 3e
       -0.121320404 -0.29299513 0.28528318 0.29809445
0002e0 91 37 cd 3e b7 f0 4d bf 91 2d 07 3f 0f 27 6e bf
       0.40081456 -0.80445427 0.52803904 -0.9302835
0002f0 39 1f c1 3d 4e 28 58 3e cd 5a 6b 3e c0 10 b9 bd
       0.094297834 0.21109125 0.22983856 -0.09036398
000300 97 34 d6 be e0 9c f0 3e f6 08 9e bf 41 e4 ac be
       -0.41836998 0.46994686 -1.2346485 -0.33767894
000310 4c 29 02 3f c0 4a bc 3d 57 02 25 bf f5 bd 99 3c
       0.50844264 0.09193945 -0.64456695 0.018767336
000320 90 55 8c be 1c 2f db 3d f6 5e 14 bf c7 50 59 3f
       -0.2740903 0.10702345 -0.579574 0.8488888
000330 73 8e b4 3d 29 d2 fa 3e ed 94 b7 3e 43 e6 1f 3f
       0.088162325 0.48988464 0.3585581 0.62460726
000340 5f c2 ac 3e 36 2b 19 3e b0 e7 3b be 01 78 00 3f
       0.33742043 0.1495789 -0.183501 0.5018311
000350 c9 aa a5 3d 37 a0 2f bf 68 bd 3d bc 10 ff 02 3f
       0.08089215 -0.68603843 -0.0115808025 0.51170444
000360 15 a7 96 3e 23 db b5 bf e5 9c 1b 3f 95 d8 a0 bf
       0.29424348 -1.42075 0.6078628 -1.2566096
000370 31 6a 4c 3e 03 3c 83 3c ba c6 8c be dd 1c 30 bd
       0.19962384 0.016019827 -0.27495366 -0.042996276
000380 c6 09 67 bd 17 c2 9d bd a0 30 b7 be 62 df 47 bf
       -0.056405805 -0.07703035 -0.35779285 -0.7807523
000390 80 f7 bf 3f 1f 0a e0 be 80 34 20 3d 08 cc d8 3d
       1.4997406 -0.43757722 0.039112568 0.10585791
0003a0 0e 61 a0 bd 87 54 4a 3f 4c de 57 3f 62 4d d1 be
       -0.07831012 0.7903523 0.84323573 -0.4087935
0003b0 39 12 a3 3f 29 64 54 be 8b 36 13 bf 17 84 07 be
       1.2739936 -0.20741333 -0.575051 -0.13233982
0003c0 11 33 b1 3d 39 99 20 3e 7e 4c 09 c0 31 ae 52 be
       0.08652318 0.1568345 -2.1452937 -0.20574261
0003d0 e5 f5 9e be fc 4f 0a bf bc b6 b2 bd 75 c1 f6 be
       -0.31046978 -0.54028296 -0.0872626 -0.4819447
0003e0 17 ed f9 bc 68 7f a5 3e 24 56 91 be 54 96 d3 3e
       -0.030508561 0.32323766 -0.28386033 0.4132563
0003f0 41 80 e6 3e 68 51 1d 3f 5f 0c a6 be c0 4e 7b bf
       0.45019725 0.6145234 -0.32431313 -0.9816704

fc1.bias f4 [64]
000000 c0 d0 d7 3d 73 e1 c1 be d5 96 52 3e b4 28 98 3b
       0.10537863 -0.37867317 0.2056535 0.004643524
000010 89 a8 f0 be f3 b9 f1 bd 0e 0f b3 3e 72 39 51 be
       -0.47003582 -0.11803045 0.34972423 -0.2043207
000020 d8 d2 78 3e 3e f8 4d 3e 77 6f bb 3e 4f d5 30 be
       0.2429918 0.20114228 0.36608478 -0.17268871
000030 be 00 08 bf 22 44 df bd e5 3e cd 3e c0 63 a5 3d
       -0.5312613 -0.10901667 0.40087047 0.080756664
000040 2c 73 1b 3e 2f 2e 76 be a8 85 d8 3e 9c 0e d9 3e
       0.15180653 -0.24041055 0.42289472 0.4239396
000050 36 32 5d be ba 28 b8 be 90 6e d9 be b7 13 ca be
       -0.21601185 -0.35968572 -0.42467165 -0.39468166
000060 da e8 3a 3e 42 0e e7 be 41 e1 a9 be cc 1e 01 be
       0.18252888 -0.45128065 -0.33179668 -0.12609404
000070 a2 f0 ab 3b 13 74 c8 bd 70 c2 42 3e 7e ef ce 3d
       0.0052471915 -0.097877644 0.19019485 0.10104273
000080 6e 17 9f be 31 bc bb 3e 9b fb 9b be 38 51 82 bd
       -0.31072563 0.36667016 -0.30465397 -0.063631475
000090 2a 54 15 3e af 79 ce 3e 97 be ab be d9 8d e6 bd
       0.14582887 0.40327212 -0.33543846 -0.11257524
0000a0 08 0f 07 3e e8 e9 ea be 66 c0 89 3e 8a b8 3b be
       0.13189328 -0.4588158 0.269046 -0.18332115
0000b0 a7 17 a0 be 99 ff 10 3e 8d d6 7b 3b 19 a3 04 3e
       -0.31268045 0.14160003 0.0038427443 0.12952842
0000c0 66 88 8d 3c 5d 8d d9 3b fe 4b b7 3e 1c c0 ab bd
       0.017276954 0.0066391663 0.35800165 -0.08386251
0000d0 3a 28 c3 bb 30 7e f1 3e a6 46 d8 be 6f 62 ba bd
       -0.005955723 0.47166586 -0.422414 -0.09100806
0000e0 62 bf 73 3e b7 04 ec 3e 0b a5 c5 3e 32 47 82 3e
       0.23803475 0.46097347 0.3860248 0.25444943
0000f0 32 ad 13 3d de 2b cf be 9e 0c 87 3e 5b e3 5b 3d
       0.036053844 -0.40463156 0.26376814 0.05368362

fc2.weight f4 [64, 64]
000000 6e b5 42 be 71 c7 32 3f 78 52 2f be f7 61 dc be
       -0.19014522 0.69835573 -0.17121303 -0.4304349
000010 15 47 72 3f 4c 9b d8 3d 17 c6 44 3e b3 4c 4c 3f
       0.9463971 0.105764955 0.1921619 0.79804534
000020 a2 47 22 be eb b1 19 3f 7b 09 7d be 3a e6 97 3e
       -0.15847638 0.60037106 -0.24710648 0.29667836
000030 39 c1 3d 3e 55 ea ba 3e ac 40 77 be bd df 17 3f
       0.1853074 0.36506906 -0.24145764 0.5932577
000040 b6 4f 86 3d 3b 8c 9d 3e 80 72 3c 3f 24 c4 40 bd
       0.065581724 0.3077105 0.73612213 -0.047062054
000050 b2 f2 4f 3e cd f5 34 3f 41 ce e7 3e df 2e f7 3e
       0.20307425 0.7068756 0.45274547 0.48277947
000060 a6 fb a8 3e f2 e9 0a 3f e4 04 b2 3e 77 3c 88 3f
       0.33004493 0.5426322 0.34769356 1.0643452
000070 7c 97 7c be fb 45 24 bf 1a c5 b8 3e 94 40 40 3e
       -0.24667162 -0.6416928 0.36087877 0.18774635
000080 46 15 f3 bc 3e c8 e5 3d 6d fd 8a 3e 06 f9 cb bd
       -0.02967323 0.11219834 0.27146474 -0.09959607
000090 2b f0 08 3f 23 db b1 be 30 9d 35 3d 81 6d 41 3f
       0.5349147 -0.347375 0.04433936 0.75557715
0000a0 d0 02 3c 3e f2 3f 6e 3f 1b f2 d6 3e 09 35 77 bf
       0.18360448 0.9306632 0.41981587 -0.965653
0000b0 ed 77 4d 3e 0d 59 a9 3e 67 c1 64 bf 05 41 5e be
       0.2006528 0.33075753 -0.8935761 -0.2170449
0000c0 7a 73 e1 3d 6a 85 97 be e3 47 4a be a0 92 3f be
       0.110083535 -0.29593974 -0.19753985 -0.18708277
0000d0 55 57 6d 3e 49 e8 9c be a8 83 2d 3f e8 b3 10 3f
       0.23177846 -0.3064597 0.67779016 0.56524515
0000e0 f6 fb 55 3b 41 43 e1 bd 0d 52 ff 3d 2f 11 f9 be
       0.00326514 -0.10999156 0.12466822 -0.48645923
0000f0 54 e6 70 3e cd 56 bb 3e 00 7f 3a be 86 0f ab 3e
       0.23525363 0.3658966 -0.18212509 0.3341028
000100 1e 1c d3 bd 8c 5f 6d bf c6 bf da bb 39 f0 df 3e
       -0.10308097 -0.9272392 -0.006675693 0.43737963
000110 a8 56 1d bf 86 4b 3c 3e 1d a6 85 bd 76 3f f7 be
       -0.6146035 0.18388185 -0.06525824 -0.48290604
000120 0a aa 17 be f5 be a9 3e d7 74 82 bd 08 ac 72 be
       -0.14810959 0.331535 -0.06369942 -0.23698437
000130 f6 bb b6 bc 2f 43 2c 3d 5c 8b 07 be 42 28 e4 be
       -0.022306424 0.04205626 -0.13236755 -0.44561964
000140 ff fe 20 3e a3 1f 1f bd c7 ff 7e bf 42 1a 3c bf
       0.15722273 -0.03884853 -0.99609035 -0.73477566
000150 6a 82 83 3e 34 62 bc 3e 22 a7 a6 3e ef 33 d7 bd
       0.25685436 0.36793673 0.32549387 -0.105079524
000160 07 9e 7b bc c5 b8 d4 3e f7 3d dd be f8 fb 8d 3e
       -0.015357501 0.41547218 -0.43211338 0.277313
000170 e9 14 ef be e4 a2 ac be 86 9f ab 3d fd 03 b9 bc
       -0.4669564 -0.33718026 0.08380036 -0.02258491
000180 5f e7 20 3e a6 b5 f8 bc 26 04 25 3e 5f 70 ab bc
       0.15713261 -0.030360054 0.16114864 -0.020927606
000190 24 d2 95 be 3f 0c 8c 3e ca 4f af 3d 76 88 54 3e
       -0.29261887 0.27353093 0.085601404 0.2075518
0001a0 86 67 ce 3e fa 73 fe be 05 7f 64 bc cf 43 2e 3f
       0.40313357 -0.49697858 -0.013946299 0.6807222
0001b0 68 76 d6 bd 60 5f 13 be e0 35 1f be 42 ae e8 3d
       -0.10471803 -0.14391851 -0.15547895 0.11361362
0001c0 96 b7 17 3f d4 cc c1 bd 71 42 97 3e 3f d2 80 be
       0.59264505 -0.09462896 0.29542878 -0.25160405
0001d0 79 e7 20 3e be c1 40 3e 88 3c 10 be c7 17 9c be
       0.157133 0.18823907 -0.14085591 -0.3048689
0001e0 14 20 2e 3e 22 40 5a be 35 83 37 bd c2 87 96 3d
       0.17004424 -0.21313527 -0.044802863 0.073501125
0001f0 f9 c9 49 3e 66 a6 f1 bd 6b 3d 8d 3e 7f 44 8d be
       0.19705953 -0.11799316 0.2758592 -0.2759132
000200 dc 10 35 bd a3 e2 75 3f 54 15 7a 3d 04 0f df be
       -0.04420553 0.96048945 0.061055496 -0.43566144
000210 85 d2 85 3f 78 40 c7 3e 41 38 d5 3e 52 0a 5c 3f
       1.045487 0.38916373 0.4164448 0.8595325
000220 a1 57 53 3e 9a 23 cf 3e c0 a6 9d bc f8 f9 be 3e
       0.20638897 0.4045685 -0.019244552 0.37300086
000230 08 fd 24 3f a3 6b ea 3e 94 39 5e bc c4 b5 46 3f
       0.64448595 0.45785245 -0.013563532 0.776211
000240 48 0e ab 3e d6 ac a2 3e c1 7b 09 3f 65 e4 4e be
       0.33409333 0.31772488 0.5370446 -0.20204313
000250 12 e4 08 be bf 10 1e 3f 1c c6 0d 3f 01 fb 91 3e
       -0.13368252 0.617443 0.55380416 0.28511813
000260 93 40 f2 3e dc 2f f7 3e 70 85 1e 3f af bd 7c 3f
       0.4731489 0.482787 0.6192236 0.98726934
000270 70 46 ae be 6e ed e1 be e5 fd e5 3d f9 ed 37 3f
       -0.34038115 -0.44126457 0.11230067 0.7184749
000280 cb 4e 6c 3d fd bb e3 3e d8 77 83 bd 06 95 73 3e
       0.05769233 0.4447936 -0.06419343 0.23787317
000290 ba 86 0e 3f 49 2e a5 be cc f7 ca 3d 73 24 02 3f
       0.55674326 -0.32261875 0.09910545 0.5083687
0002a0 56 8c 20 3e be 24 88 3f ea cd b4 3e 85 0d 9a bf
       0.15678534 1.0636213 0.3531335 -1.2035376
0002b0 fe ec f7 3e 32 94 cb 3e 27 f5 de bf d2 20 26 3e
       0.48422998 0.39761502 -1.7418565 0.16223457
0002c0 8e b4 97 3d be 09 5b bf cf 49 00 bf 60 e8 64 bd
       0.07407485 -0.8556174 -0.5011262 -0.055885673
0002d0 6a cf 02 3f 4e 32 a7 bd 43 64 3a 3f 67 0d d6 3e
       0.5109774 -0.08163892 0.7280924 0.418071
0002e0 4c 8c 70 3d 93 c7 9a 3b ed ac 27 3d b8 48 46 be
       0.058727548 0.004723498 0.0409364 -0.19363678
0002f0 4a 65 9c 3e c1 8a 13 3f 3d 93 e4 be 98 8d 22 3f
       0.30546027 0.57633597 -0.44643584 0.63497305
000300 b2 db b6 bd c1 f3 6c 3f 0a a2 02 3e 5e ce 9e be
       -0.08928622 0.9255944 0.12757125 -0.3101682
000310 0d b0 9b 3f 98 b2 ac 3e c2 a5 12 3f 62 9f a6 3f
       1.2163101 0.33730006 0.57284176 1.301739
000320 f4 87 23 3f 66 8d d7 3e 5b 03 cc 3c b0 40 be 3e
       0.63879323 0.42100066 0.024903944 0.37158728
000330 bf 76 3d 3f 23 7b 2a 3f 79 ac c2 3b e5 7f de 3e
       0.7400932 0.6659414 0.0059409705 0.4345695
000340 1e 39 5a 3e 50 f9 0a 3f fb ca 41 3f ea a2 55 be
       0.21310851 0.5428667 0.7570035 -0.20862928
000350 b1 9d c7 be df 4d d1 3e a6 bf ba 3e e7 60 34 3f
       -0.38987496 0.40879723 0.3647434 0.7046036
000360 3b ed c8 3e 35 2e a1 3e 74 da 12 3f c5 8f a8 3f
       0.39243492 0.31480566 0.57364583 1.3168875
000370 b4 84 85 be 5b 0b 1a bf 84 ba b7 3e 88 e8 8d 3e
       -0.26077807 -0.6017358 0.35884488 0.2771647
000380 fb 1e 62 3e db 93 84 3e a9 45 33 be fb e5 a8 3e
       0.2208213 0.25894055 -0.17507042 0.3298796
000390 54 1b 98 3e d7 fd 4d ba 06 90 fe 3d 94 e4 95 3d
       0.2970835 -0.00078579545 0.12429814 0.073189884
0003a0 b3 20 42 3e 7c 04 80 3f 7d 00 1c 3e 33 32 26 bf
       0.18957786 1.0001369 0.15234561 -0.6492035
0003b0 83 9c 47 3f a5 ec da 3e 70 56 a9 bf 8b 80 18 3f
       0.7797319 0.4275867 -1.3229504 0.5957114
0003c0 e9 13 06 bf 1f 04 47 bf 3a f5 6d bf bd ec 88 be
       -0.5237413 -0.77740663 -0.9295231 -0.26743117
0003d0 0a ee fa 3e 30 79 f8 bd dc fa 77 3f aa 67 59 3f
       0.49009734 -0.1213249 0.96867156 0.84923804
0003e0 88 78 e9 3d 67 ec 81 bc a0 30 2a 3e 00 8f 8e be
       0.11399943 -0.015859796 0.16620111 -0.27843475
0003f0 59 ee aa 3e e9 74 5b 3f 3b eb 8f be f2 67 f9 3e
       0.3338497 0.85725266 -0.28109154 0.48712116

fc2.bias f4 [64]
000000 85 0b 9d bd 91 b1 90 3c d9 5f 31 be 1f 84 d6 3d
       -0.07668213 0.017662795 -0.17321719 0.10474419
000010 d9 91 44 3e 76 f6 e8 bd 7f cc 8f 3e af 8a c3 bd
       0.19196261 -0.11375134 0.28085706 -0.09547936
000020 5a 37 87 3e 7f 5a f1 3d 1b e7 9a bd 2e 44 12 be
       0.26409417 0.11784839 -0.07563611 -0.14283821
000030 2f b0 3f 3d e1 6e 0a be 4a 48 30 be 7d 97 89 3e
       0.04679888 -0.1351886 -0.17215076 0.2687339
000040 2d bf e6 bc fc f5 37 bd 7e ec f9 3e db 8c 33 bd
       -0.028167332 -0.044912323 0.48813242 -0.043835502
000050 d6 3d cd 3c bf 8b 84 be f1 ca 68 bd 85 69 22 be
       0.0250539 -0.25887868 -0.056834165 -0.15860565
000060 80 33 e4 bd 6a 88 9d 3e f7 be 2a be 63 07 f8 bd
       -0.11142635 0.30768138 -0.1667441 -0.12110784
000070 6c 8d b4 bd 92 40 fd bd 4f cf 18 3e b1 9e d4 3e
       -0.088160366 -0.123658314 0.14922832 0.41527322
000080 98 de e1 bd 75 0a ab 3e 33 52 a4 bd c8 15 2f bd
       -0.110287845 0.33406416 -0.08023491 -0.04274538
000090 68 10 69 3c 3c 9e 98 bd c4 e9 4e be 78 a5 5a 3d
       0.014225103 -0.07452056 -0.20206362 0.05338046
0000a0 49 df 13 be 02 63 a2 bd 95 47 a6 be ff fa 65 3e
       -0.14440645 -0.079290405 -0.32476488 0.22459029
0000b0 5a ec f6 bd 55 13 ae 3d a6 85 9c bd 3f 55 2b be
       -0.12056799 0.08499781 -0.07642679 -0.16731738
0000c0 8a 01 a2 bd 9d 73 22 3e b5 30 9b be ee f9 08 be
       -0.0791045 0.15864415 -0.30310598 -0.1337659
0000d0 7c 82 f4 3e d2 10 a2 3d b2 48 42 bd 09 89 bd 3e
       0.47755802 0.079133645 -0.04743261 0.37018612
0000e0 92 86 8c 3c 7a 5e f3 bd 54 80 cf bd 7c 90 00 bc
       0.017154012 -0.11883254 -0.101318985 -0.007846948
0000f0 3b e7 85 be cb 92 58 be 07 46 0a 3f 36 6a 4e bd
       -0.26152977 -0.21149747 0.54013103 -0.05039426

fc3.weight f4 [4, 64]
000000 aa 7e c3 be b8 24 d6 3d c6 dc 17 bf f3 a1 37 bf
       -0.38182575 0.10456222 -0.5932125 -0.7173149
000010 32 c7 11 bf 5f 73 43 bf 44 f3 5e 3f c2 60 87 3f
       -0.5694457 -0.7634792 0.87089944 1.0576403
000020 9a 07 a7 bd 15 ca 27 3e 74 60 38 bf 16 36 93 bd
       -0.08155747 0.16385682 -0.72022176 -0.071880504
000030 ea f5 18 bf f2 ff 35 bf 7f e7 71 bf 6b 57 7b 3f
       -0.59750235 -0.71093667 -0.9449386 0.98180264
000040 a9 70 0e 3d ba fd 18 bf 00 26 67 3f 31 7c 1a bf
       0.03477541 -0.59762156 0.9029236 -0.6034575
000050 86 84 28 bf 71 11 b9 be 6c fb b9 3d c1 c5 3f bc
       -0.65827215 -0.3614612 0.09081158 -0.011704863
000060 99 56 34 bf c3 9c 20 3f b9 52 d1 be 28 af 3f bf
       -0.7044464 0.627392 -0.40883425 -0.7487664
000070 1c 25 1b bf 7c f7 60 bf 5f b9 3e 3f 20 f1 82 3f
       -0.606035 -0.8787763 0.74501604 1.0229836
000080 43 fa 5c bf 62 87 4b be 3f 92 2f bf 54 dd 8b 3d
       -0.8631937 -0.19875863 -0.6858253 0.06829324
000090 5e e4 eb 3f cc b1 44 bf 93 d4 5a bf 4b a0 f0 be
       1.8429067 -0.76833797 -0.8548061 -0.46997294
0000a0 1d 60 3f bf 8f 3c 08 bf 67 06 2a 3e f1 62 60 3f
       -0.7475603 -0.53217405 0.16604005 0.8765097
0000b0 ef 01 0d 3d 9e 11 8a bc 76 37 ae 3f af 50 16 bf
       0.034425672 -0.016854104 1.3610675 -0.58716863
0000c0 98 00 5c bf cc 8b f5 be 2c 78 4a bf 39 8b f2 be
       -0.85938406 -0.4795822 -0.7908962 -0.47371843
0000d0 7e 7d 1d 3e 26 79 a5 be dd ab 52 bf 44 6d 91 3f
       0.15379903 -0.3231899 -0.8229349 1.136147
0000e0 c8 5f 8f 3f 61 69 20 bf 00 f4 9b 3c 78 4c 11 bf
       1.1201105 -0.62660795 0.019037247 -0.5675731
0000f0 74 3c 4e bf e1 35 2d bf 45 3b 54 3f b4 a2 2a bf
       -0.80560994 -0.6766034 0.8290294 -0.66654515
000100 34 14 b0 be 2a a6 67 3e 93 20 0a bf 8a af 30 bf
       -0.34390414 0.2262198 -0.53955954 -0.6901785
000110 3d f1 39 bf cb 89 57 bf e0 03 57 3f 7e 58 4c 3f
       -0.72633725 -0.8419463 0.8399029 0.7982253
000120 c3 dd 5f 3f c0 c3 ce 3d 61 8c 5d bf fc 9b 35 bd
       0.87447757 0.1009593 -0.86542326 -0.04433821
000130 dc dd 74 3d 88 9c 48 bf 59 41 fd be 27 36 7b 3f
       0.059781894 -0.7836385 -0.4946392 0.98129505
000140 28 6a 64 3c d7 c0 13 bf 4c f1 44 3f ad e5 34 bf
       0.013941325 -0.57716125 0.7693069 -0.7066296
000150 da fa 20 bf 4e 9b 9b bd 14 a2 6f 3d 09 b7 d6 bd
       -0.6288277 -0.075979814 0.05850418 -0.1048413
000160 3b 59 56 bf d2 19 1d 3f a5 7d ad bd e4 05 26 bf
       -0.83729905 0.61367524 -0.084712304 -0.6485274
000170 d5 10 3f bf 6c 38 75 bf fa a5 7c 3e 39 e9 98 3f
       -0.7463506 -0.9578922 0.2467269 1.1946174
000180 13 87 45 bf 76 f4 47 bf fc 41 54 bf 13 c0 3e 3f
       -0.7715923 -0.7810739 -0.82913184 0.7451183
000190 0e 23 f7 3f ec 4c 7a bf 28 3c ea be 65 4a 39 be
       1.9307573 -0.97773623 -0.4574902 -0.18094786
0001a0 df 4a 8a bf 7b 20 6a bf 0c d0 6b bf c6 e1 93 3f
       -1.0804099 -0.9145581 -0.9211433 1.1553276
0001b0 75 3c 8b bd 60 1a 2f 3c b7 e5 93 3f 5f 8f 24 bf
       -0.06798641 0.010687441 1.1554478 -0.64281267
0001c0 26 b1 5f bf 01 73 ee be 14 43 64 bf e2 d4 b8 be
       -0.8737968 -0.46572116 -0.89164853 -0.36099917
0001d0 44 a9 49 bd 41 52 ee be 30 3b 78 bf 2e 98 86 3f
       -0.04923369 -0.4654713 -0.9696531 1.0515192
0001e0 2b a2 63 3f 36 60 0f bf a0 cf 36 bc 6b 04 38 bf
       0.88919324 -0.5600618 -0.0111579 -0.7188174
0001f0 2a 67 82 bf b2 ab 08 bf da e8 98 3f b0 89 3f bf
       -1.0187733 -0.53386986 1.1946061 -0.7481947
000200 9e ac 8f bf b4 71 3d bf bc 60 50 bf d0 f3 a8 be
       -1.1224554 -0.7400162 -0.81397605 -0.32998514
000210 66 00 57 3f 3b 26 f2 be 63 cd ca 3f ae 3f b6 3f
       0.8398498 -0.47294793 1.5843929 1.4238183
000220 40 e6 49 3f 5c b1 82 3f da fe dc be 73 23 93 3c
       0.7886696 1.0210376 -0.43163186 0.01796124
000230 f7 81 bb be bc 4c 36 bf 71 2f 97 bf 39 e7 28 3f
       -0.36622593 -0.7121084 -1.1811353 0.6597782
000240 c4 94 72 3c 7c ed 75 bf 87 b9 de 3e 0c 58 3a bf
       0.014805976 -0.960655 0.4350092 -0.727906
000250 2b 2d d2 bd f2 e0 1a bf a0 bc 5b bd 5a 46 8d 3d
       -0.10262521 -0.6049949 -0.053646684 0.06898184
000260 42 c4 1a bf 7f 06 81 3f b7 cb 6d bf 2b 77 51 bf
       -0.60455716 1.0080107 -0.9288897 -0.8182246
000270 2d ad bf be c0 40 ac be 14 75 93 3e 8b b5 9e 3f
       -0.3743681 -0.3364315 0.2880026 1.2399153
000280 9f 53 ff be 90 73 f0 be c6 a7 04 bf 14 3d dd be
       -0.49868485 -0.46963167 -0.518185 -0.4321066
000290 41 b8 9b 3f 87 56 3c bf 1a 3b 6b bf 38 f5 44 bf
       1.2165605 -0.7356953 -0.91887057 -0.76936674
0002a0 b7 53 48 bf 45 b2 69 bf 03 e3 6c bf c9 6a 8e 3f
       -0.7825274 -0.9128764 -0.9253389 1.1126338
0002b0 1d 00 72 3c 42 72 5c 3b 2f 3b 6f 3f 79 1f 0a bf
       0.014770535 0.003363744 0.9344968 -0.53954273
0002c0 8b 83 23 bf 6b 5f 26 bf 24 3d 7a bf f3 dd 69 bf
       -0.63872594 -0.64989346 -0.97749543 -0.9135429
0002d0 2b 9f 42 bf 22 ce 61 bf 4b f4 e2 be 22 00 97 3f
       -0.7602412 -0.8820516 -0.44327006 1.1796916
0002e0 3e 81 cc 3f 1d ee 1b bf 39 d4 7b 3d 09 ff 8e 3e
       1.5976942 -0.6091021 0.06148169 0.2792895
0002f0 21 49 40 bf 89 b4 43 bf c8 8a 63 3f 13 ae 26 bf
       -0.75111586 -0.7644735 0.8888364 -0.65109366
000300 7a 0b a1 be b3 09 7e 3e 5e b3 0a bf fc 47 53 bf
       -0.31454068 0.24808387 -0.5417994 -0.82531714
000310 f5 4e 03 bb 79 2c 47 bf 88 9a 28 3f 3d 30 55 3f
       -0.0020036076 -0.77802235 0.65860796 0.8327673
000320 9f ff 04 bf 39 7f a5 be f7 54 35 bf 6d 19 22 3c
       -0.51952547 -0.32323626 -0.7083277 0.009893757
000330 64 be 80 bf e0 2d 3a bf 6a fd 65 bf 36 cd a4 3f
       -1.0058103 -0.7272625 -0.89839804 1.2875125
000340 e4 b6 2f bd b7 09 e0 be 2f 64 6a 3f 48 2f 32 bf
       -0.042899027 -0.43757412 0.9155912 -0.69603395
000350 15 c8 41 bf b0 3b 8c bf c1 7c c9 3c ab b4 22 bc
       -0.75695926 -1.0955715 0.02459562 -0.00993077
000360 cd b5 31 bf 45 2e 4d 3f 9e dc cc be 58 e4 4a bf
       -0.6941803 0.80148727 -0.40012068 -0.79254675
000370 7e f2 12 bf 6b 49 53 bf 11 7b 80 3f 09 5e 47 3f
       -0.57401264 -0.825339 1.0037557 0.7787786
000380 a6 fc 50 bf 09 05 10 3e 2b 56 5b bf 9e a6 23 3e
       -0.8163551 0.14064421 -0.85678357 0.15981528
000390 1f 2d c8 3f 27 20 67 bf af fb 72 bf d4 24 2f bf
       1.563877 -0.90283436 -0.9491529 -0.6841557
0003a0 25 e5 31 bf 75 fa 55 be c3 bf 13 bf 48 4c 2f 3f
       -0.6949027 -0.20896323 -0.5771448 0.6847577
0003b0 77 5b d2 3d 89 e3 d2 bd 78 4f e4 3f 71 b9 f7 be
       0.10271352 -0.10297305 1.7836752 -0.48383668
0003c0 49 84 46 bf a7 db bd 3d e4 d8 35 bf 35 97 1f bf
       -0.775456 0.09270411 -0.71034074 -0.623401
0003d0 02 2b 01 3f 40 da a3 bd ba 41 62 bf d5 00 8e 3f
       0.5045625 -0.08000612 -0.8838154 1.1094004
0003e0 f1 ab b8 3f 51 2b 51 bf 6b 9d 00 3d 05 00 1a bf
       1.4427472 -0.8170672 0.031400125 -0.6015628
0003f0 7c 2b 25 bf 48 20 79 bf 8d cd 1c 3f a5 6f 1d bf
       -0.64519477 -0.9731488 0.61251146 -0.6149848

fc3.bias f4 [4]
000000 0b 58 d1 3e f8 a3 db 3e 64 4a af 3e 35 10 b8 3c
       0.40887484 0.42898536 0.34236443 0.022468666
