checkpoint.pth (torch_old, 28463 bytes, 6 tensors)

fc1.weight f4 [64, 37]
0	0xb9923862	-0.00027889299
1	0xbd513906	-0.051079772
2	0xbd78867b	-0.060675126
3	0xbd9c2476	-0.07624142
4	0xbda09930	-0.07841718
5	0x3cf6ee68	0.030142978
6	0x38c98661	9.609457e-05
7	0x3d77cfb9	0.060500834
8	0x3e1fcaeb	0.15604751
9	0x3e27be04	0.16381079
10	0x3e8dcb2f	0.2769408
11	0xbf382029	-0.7192407
12	0xbeaa2798	-0.33233333
13	0xbecd3fea	-0.40087825
14	0xc0302da6	-2.7527862
15	0xbcd202d1	-0.025636109
16	0x3c3e6726	0.011621272
17	0x3dd84200	0.105594635
18	0x3d8617f7	0.0654754
19	0x3e001f24	0.12511879
20	0xbd4270ad	-0.047470737
21	0x3e679d13	0.22618513
22	0x3e4ed208	0.20197308
23	0x3e1e0ddb	0.15434973
24	0x3e8e7a31	0.278276
25	0xbbc5c51e	-0.006035461
26	0x3bd52e8d	0.0065057934
27	0xbd76f56d	-0.06029265
28	0x3d25b0ef	0.04045194
29	0xbd0469ce	-0.032327466
30	0xbbdac3dc	-0.0066761803
31	0x3d67a586	0.05655434
32	0x3c1f5dbc	0.009726938
33	0xbcc71fd4	-0.024307169
34	0xbdc27c39	-0.0949635
35	0xbcc8a5c1	-0.0244931
36	0xba2a04a4	-0.0006485677
37	0x3e7d3653	0.24727754
38	0x3d58dfbe	0.052947752
39	0x3e71e6a5	0.2362314
40	0xbd2521da	-0.040315486
41	0xbe20b6a3	-0.1569467
42	0x3e198c35	0.14994891
43	0xbd2c5c77	-0.04208037
44	0xbdd52324	-0.10407093
45	0xbd13a72e	-0.036048107
46	0x3d8f14a6	0.0698636
47	0x3e856168	0.26050878
48	0xbd68a978	-0.056802243
49	0x3d4b93dc	0.049701557
50	0x3dd28451	0.102791436
51	0xbd747cb2	-0.05968923
52	0x3e5e832b	0.21729724
53	0x3e19f6e4	0.15035588
54	0x3b49118d	0.0030680627
55	0x3b3004d5	0.002685835
56	0xbe03e532	-0.128804
57	0x3defac7d	0.117028214
58	0xbddd122a	-0.1079448
59	0xbcc30373	-0.023805356
60	0xba761b4f	-0.00093882246
61	0xbc446f22	-0.011989387
62	0x3da04393	0.07825389
63	0x3cf05dcd	0.029341603
64	0x3e05700a	0.13031021
65	0xbce40c42	-0.027837876
66	0xbd465d23	-0.048428666
67	0x3d15641d	0.03647243
68	0x3e5168d2	0.20450142
69	0x3e821838	0.25409102
70	0x3e4b4ac4	0.1985274
71	0x3e19415a	0.14966336
72	0x3d027e1a	0.03185854
73	0x3d4d3ca0	0.050106645
74	0x3e699c09	0.22813429
75	0x3de926f3	0.11384382
76	0xbddf2525	-0.10895757
77	0x3d512be7	0.05106726
78	0xbcc69463	-0.024240678
79	0xbd9440c2	-0.07238914
80	0xbec21874	-0.3790928
81	0x3ed83ddd	0.42234698
82	0xbe266955	-0.16251118
83	0xbf1b6114	-0.60695004
84	0x3d970858	0.07374638
85	0xbeae2c96	-0.3401839
86	0x3ea914c0	0.33023643
87	0xbf071a5a	-0.52774584
88	0xbf57a8eb	-0.84242123
89	0x3de45010	0.11148083
90	0xbe0f2b28	-0.13981307
91	0x3cabd1a3	0.020973986
92	0x3d1644ab	0.03668658
93	0xbc41f0df	-0.011837213
94	0x3e3b5a61	0.18296196
95	0xbd090dd3	-0.03346045
96	0xbd930fa2	-0.07180716
97	0xbf3c3a9a	-0.7352692
98	0xbef5e82c	-0.48028696
99	0xbd37a274	-0.04483266
100	0x3da39677	0.07987683
101	0x3e05355e	0.13008639
102	0x3d3a8149	0.045533452
103	0xbe9afd91	-0.3027158
104	0xbe6d71d5	-0.23187955
105	0xbeeac96b	-0.45856795
106	0x3ddfb8ec	0.10923943
107	0xbd160b95	-0.03663214
108	0xbeaa056c	-0.33207262
109	0xbe67f14c	-0.22650641
110	0xbc9e668a	-0.019336004
111	0x3ea3fc50	0.32028437
112	0xbe973680	-0.29533768
113	0xbe9762dd	-0.29567614
114	0xbdd3feb7	-0.103513174
115	0xc00c0cb9	-2.1882765
116	0xbd1b78d8	-0.037957042
117	0x3d5383df	0.051639434
118	0x3d35195a	0.04421363
119	0x3e39ce7f	0.18145178
120	0x3e476fbc	0.19476217
121	0xbe347054	-0.17620975
122	0x3cebc85b	0.02878206
123	0x3c58cfba	0.01323312
124	0xbdae5ccb	-0.085137926
125	0xbe70dd83	-0.23522
126	0x3cae3289	0.021264331
127	0xbe34d0cf	-0.17657779
128	0xbdbadfac	-0.09124693
129	0xbe321b31	-0.17393185
130	0xbef3149c	-0.4747666
131	0x3ea6b427	0.3255932
132	0xbf03304d	-0.51245576
133	0xbdb77043	-0.08956959
134	0xbea823ed	-0.3283991
135	0xbefb6683	-0.49101648
136	0xbc44c84d	-0.012010646
137	0xbed4d367	-0.41567537
138	0x3dccae63	0.09994199
139	0x3ea9d667	0.33171389
140	0xbf85a284	-1.0440221
141	0x3e88cc1e	0.2671823
142	0x3d6c073f	0.057624098
143	0xbeb50381	-0.35354236
144	0xbed8c702	-0.4233933
145	0xbd044fa9	-0.032302532
146	0xbb37f41b	-0.0028069082
147	0xbcd8f68e	-0.026484754
148	0xbe202610	-0.1563952
149	0xbca8f11f	-0.020622788
150	0xbe164f6a	-0.14678732
151	0xbd768a49	-0.060190473
152	0xbcbc31cf	-0.02297297
153	0x3df75c66	0.120781705
154	0xbd573768	-0.052543074
155	0x3c388a52	0.011263447
156	0x3d1fb7aa	0.038993515
157	0xbdc8cb93	-0.09804454
158	0x3e19daa4	0.15024811
159	0x3bf84e00	0.0075776577
160	0xbd0ed840	-0.0348742
161	0xbe46a910	-0.1940043
162	0xbe586970	-0.21133971
163	0xbd2c8226	-0.042116307
164	0xbe54adff	-0.20769499
165	0x3de535ae	0.11191879
166	0xbe1dc372	-0.15406588
167	0xbdba4bfc	-0.09096524
168	0xbe1feea9	-0.15618385
169	0xbd977c60	-0.073967695
170	0x3e4b27fb	0.1983947
171	0x3dd2ac56	0.10286777
172	0x3f1ba4d2	0.6079837
173	0x3c5aeee5	0.013362621
174	0x3e53311c	0.20624202
175	0x3d0e0948	0.03467682
176	0xbd3e0ad3	-0.04639704
177	0xbe39d6fc	-0.18148416
178	0x3e3736f2	0.17892054
179	0xbe3930a1	-0.18084957
180	0xbdc77eaf	-0.0974096
181	0x3c544e99	0.012958192
182	0x3ea0b578	0.3138845
183	0x3b482228	0.0030537937
184	0x3b8f3226	0.004369992
185	0xbd4e7b4b	-0.05041055
186	0xbca6df9d	-0.020370299
187	0x3d961881	0.073288925
188	0x3cef9ded	0.02925011
189	0xbdd0b794	-0.10191265
190	0x3cbdd708	0.023173824
191	0x3e8e36c7	0.27776167
192	0x3dcca1b7	0.09991782
193	0xbddd2654	-0.10798326
194	0xbdd81ebc	-0.10552737
195	0xbd617cac	-0.055050537
196	0xbd6559dd	-0.055993903
197	0xbc9f5191	-0.019448074
198	0x3dce364e	0.100689515
199	0x3d804e48	0.06264931
200	0xbdb27ff6	-0.08715813
201	0x3c541ad6	0.012945851
202	0x3b9c228c	0.0047648605
203	0x3e898905	0.2686235
204	0x3d97f8f3	0.0742053
205	0x3dbf1a06	0.093311355
206	0x3dea2dd3	0.114345215
207	0x3cf4e61a	0.029894877
208	0xbb622a3e	-0.0034510042
209	0x3d869c7b	0.06572815
210	0xbde0d5e9	-0.109783
211	0x3d9d78d1	0.076890595
212	0x3c1754e5	0.009236549
213	0x3e811888	0.25214028
214	0x3eb9d1c8	0.36292863
215	0x3ecfdd40	0.40598488
216	0xbeafaf1b	-0.34313282
217	0xbf31e59d	-0.6949099
218	0xbe7da68e	-0.24770567
219	0xc017116b	-2.360438
220	0xbcb21f23	-0.021743363
221	0x3a070283	0.00051502156
222	0x3ee6a57a	0.45048124
223	0xbf486650	-0.78281116
224	0xbf48b314	-0.7839825
225	0xbf60195a	-0.87538683
226	0xc02bf516	-2.6868339
227	0xbdc7b8fd	-0.097520806
228	0xbcf19169	-0.029488282
229	0x3dd87d12	0.1057073
230	0x3cac77c6	0.021053206
231	0x3e0d2ca5	0.13786562
232	0x3d876190	0.066104054
233	0x3d7d50f2	0.061844774
234	0x3e08b6ba	0.13350955
235	0x3e367166	0.17816696
236	0x3cc9f0a6	0.024650883
237	0xbd738876	-0.05945631
238	0xbd1ccc1e	-0.0382806
239	0x3d8d08e9	0.06886465
240	0x3e534c1a	0.20634499
241	0x3e89a4b2	0.26883465
242	0xbdc222a1	-0.09479261
243	0x3c1c830c	0.009552728
244	0x3da80000	0.08203125
245	0x3e13f13a	0.1444749
246	0x3e04bb40	0.12962055
247	0xbe268f75	-0.16265662
248	0x3d80798a	0.06273182
249	0x3d60d70a	0.054892577
250	0x3e28cfa8	0.16485465
251	0x3e976265	0.29567257
252	0xbd4df424	-0.05028166
253	0x3dbd5c12	0.09246077
254	0x3db5683c	0.08857772
255	0x3db9926f	0.09061133

fc1.bias f4 [64]
0	0x3e10f379	0.14155377
1	0x3df30468	0.11866075
2	0xbddad013	-0.10684218
3	0xbdaf6271	-0.08563698
4	0x3e48d54c	0.19612616
5	0xbcc4393f	-0.023953078
6	0xbb9def2b	-0.004819771
7	0x3e089e0f	0.13341545
8	0x3d26a7ef	0.040687498
9	0xbde7a20b	-0.11310204
10	0x3e83f300	0.25771332
11	0x3d824fae	0.06362854
12	0x3e052f3a	0.13006297
13	0x3e19df71	0.15026642
14	0xbcc00ef0	-0.023444623
15	0xbe06f401	-0.13179018
16	0x3e0ab4d0	0.13545537
17	0xbda459d1	-0.080249436
18	0x3d62bbc1	0.055354837
19	0xbe1bb50a	-0.1520578
20	0xbe21719e	-0.15765998
21	0x3d2d2369	0.042270098
22	0x3e233bca	0.15940776
23	0xbdd1136c	-0.102087826
24	0xbdcc262a	-0.09968217
25	0x3d83fbef	0.06444537
26	0xbc271c83	-0.010199669
27	0xbda318e0	-0.07963729
28	0x3e26a999	0.16275634
29	0x3e3f839b	0.18702547
30	0xbde158b5	-0.11003248
31	0xbe4db394	-0.20088035
32	0x3c92890f	0.01788762
33	0xbb883b47	-0.004157457
34	0xbd628f32	-0.055312343
35	0x3c2c4c48	0.010516234
36	0xbcddf660	-0.02709502
37	0x3caee849	0.021350997
38	0xbe049b1c	-0.12949795
39	0xbe0a8f5e	-0.13531253
40	0xbe07ccf0	-0.13261771
41	0xbddaee15	-0.10689942
42	0xbd88f2f7	-0.06686967
43	0x3e675763	0.22591929
44	0xbc1bc102	-0.009506466
45	0xbe1db07d	-0.15399356
46	0x3d2bc605	0.041936893
47	0xbe2f4cbb	-0.17119114
48	0xbe1d2bc2	-0.15348724
49	0x3d35f4fe	0.044423096
50	0xbe445ddd	-0.19176431
51	0x3e076595	0.13222344
52	0xbdd455c3	-0.1036792
53	0xbd555b6c	-0.05208914
54	0xbe0fdb3c	-0.14048475
55	0xbd9599c1	-0.07304717
56	0xbca182c7	-0.01971568
57	0x3d6e6616	0.058202825
58	0xbddd9e42	-0.10821201
59	0xbe059784	-0.1304608
60	0x3d4336d6	0.047659718
61	0xbc28f656	-0.010312637
62	0x3d27e1f1	0.04098696
63	0x3d96735f	0.07346224

fc2.weight f4 [64, 64]
0	0x3eccb796	0.39983815
1	0x3d033ee5	0.032042403
2	0x3ea7e6a0	0.3279314
3	0x3de8b4eb	0.11362632
4	0x3e05a8c0	0.13052654
5	0x3e025b28	0.12730086
6	0xbe9175b8	-0.28410125
7	0xbe07c477	-0.13258539
8	0xbdf2dae6	-0.11858158
9	0xbd95a513	-0.07306876
10	0x3dd064bf	0.10175466
11	0x3d8279e9	0.06370909
12	0x3c1b1bd4	0.009467084
13	0x3dd519fc	0.10405347
14	0xbd1bd165	-0.03804149
15	0xbc77dd6d	-0.015128476
16	0xbe406098	-0.18786848
17	0xba549d47	-0.00081105944
18	0x3d80c1d8	0.06286973
19	0xbe910169	-0.28321388
20	0xbdbc598c	-0.09196767
21	0xbea34b95	-0.31893602
22	0x3d0e5578	0.034749478
23	0xbe2ce461	-0.16883995
24	0xbe667a8b	-0.22507684
25	0x3e810ee0	0.2520666
26	0x3d9f62a2	0.077824846
27	0x3ddef688	0.10886866
28	0xbd5c3ef2	-0.053770967
29	0xbed147ef	-0.40875193
30	0x3df9e1a0	0.12201238
31	0xbe096613	-0.13417844
32	0x3ca9bb80	0.02071929
33	0x3ef0f35a	0.47060663
34	0x3cac7246	0.021050584
35	0x3d59b562	0.053151496
36	0x3ca9322b	0.020653805
37	0x3efb0ed5	0.49034753
38	0x3c593ef8	0.013259642
39	0x3ded8740	0.115980625
40	0xbd632899	-0.05545864
41	0x3cd34f7b	0.025794735
42	0xbd3b64a2	-0.045750268
43	0x3d1a34f8	0.03764817
44	0x3d76ba69	0.06023637
45	0x3d5780c8	0.05261305
46	0xbd193a18	-0.03740892
47	0xbc553a9f	-0.013014465
48	0xbc9b74f0	-0.018976659
49	0x3d14d3e2	0.03633488
50	0xbdeebb00	-0.11656761
51	0x3e0e35f8	0.13887775
52	0xbe5d1daa	-0.21593347
53	0x3e146a3d	0.14493652
54	0x3dad544b	0.08463343
55	0xbe6efa58	-0.23337686
56	0xbec3713d	-0.3817233
57	0xbce0c450	-0.02743736
58	0x3ca840ab	0.020538649
59	0xbdab5a9b	-0.08366891
60	0xbd2fe46b	-0.042942446
61	0x3e938e9a	0.28819734
62	0xbe1b43d3	-0.15162592
63	0x3d0af8c1	0.033928636
64	0xbcdc528e	-0.026894834
65	0x3e1fe4af	0.1561458
66	0x3d8362f1	0.06415356
67	0x3e5ac597	0.21364437
68	0xbdeb925a	-0.11502524
69	0x3d52a12b	0.051423233
70	0xbc7d522f	-0.015461489
71	0xbe41cae6	-0.18925056
72	0x3d142040	0.03616357
73	0xbdb5fa3a	-0.088856176
74	0xbd1ffd36	-0.03905984
75	0x3dc0026a	0.093754604
76	0x3de70b80	0.1128149
77	0x3d6dfafa	0.058100678
78	0x3df1cd48	0.118067324
79	0xbced8e93	-0.028998649
80	0xbbdb8e8c	-0.0067003425
81	0x3e437f26	0.19091472
82	0x3d84c13a	0.064821675
83	0x3e6fc849	0.23416246
84	0xbe418230	-0.18897319
85	0xbeb9dc21	-0.36300758
86	0x3d9096dc	0.07060024
87	0xbf17aecb	-0.5925109
88	0x3e899c0a	0.2687686
89	0x3e012d0a	0.12614837
90	0xbea3ac4d	-0.31967393
91	0x3d4bb5f5	0.049734075
92	0x3c7c7c3f	0.015410482
93	0x3e6396a0	0.22225428
94	0xbc970532	-0.018435095
95	0xbe6b49c8	-0.22977364
96	0xbe1aee97	-0.15130077
97	0xbd1d122f	-0.03834742
98	0x3c71aeb5	0.014751126
99	0xbe039b0d	-0.12852116
100	0x3c6200d0	0.013794139
101	0xba967f0e	-0.0011481957
102	0xbdf45fe6	-0.11932354
103	0xbe66b167	-0.22528611
104	0x3eba1357	0.3634288
105	0x3d89cff6	0.067291185
106	0x3ed821ec	0.4221338
107	0xbaa87606	-0.0012852557
108	0xbec0158f	-0.37516448
109	0xbe85e7a6	-0.26153296
110	0xbda49e11	-0.08037961
111	0x3d69561e	0.056966893
112	0xbd07c8f5	-0.033150632
113	0xbc5c8e1d	-0.013461617
114	0xbe2ddc20	-0.16978502
115	0x3dca397e	0.09874247
116	0xbeae441e	-0.34036344
117	0x3e327ecc	0.17431182
118	0x3cca2d41	0.024679782
119	0xba91dd8e	-0.001112865
120	0xbcb45376	-0.022012454
121	0x3d3981b7	0.04528972
122	0xbd0b13d9	-0.033954475
123	0xbe185a27	-0.1487814
124	0xbd982d34	-0.07430497
125	0xbd094cf6	-0.03352066
126	0xbe6f2239	-0.23352899
127	0xbd3c1dd0	-0.04592687
128	0xbe861671	-0.26188996
129	0xbdf714bf	-0.12064504
130	0x3c8ed79a	0.017436791
131	0x3c6e187e	0.014532207
132	0xbdc83172	-0.09775056
133	0x3c444e82	0.011981608
134	0xbedb0e28	-0.42784238
135	0xbb374508	-0.002796473
136	0x3e863751	0.26214078
137	0xbd6f0be7	-0.05836096
138	0x3d88cc38	0.06679577
139	0xbe1eb6b0	-0.15499377
140	0x3ce6524b	0.028115412
141	0x3e0ae516	0.13563952
142	0xbbcf19c8	-0.006320212
143	0x3e577229	0.21039642
144	0xbe02ac79	-0.12761106
145	0x3c400347	0.011719531
146	0xbde4af5e	-0.11166261
147	0xbe8abb30	-0.27095938
148	0xbd4ee75e	-0.050513618
149	0xbdd8c424	-0.10584286
150	0xbdbb288e	-0.091385946
151	0x3e490e19	0.19634284
152	0xbda16677	-0.07880872
153	0x3e589228	0.21149504
154	0xbe920d0e	-0.28525585
155	0x3ea4d935	0.32196966
156	0x3e42c764	0.19021374
157	0x3ee1e3aa	0.44119006
158	0x3e1784b2	0.14796713
159	0x3e9c52ff	0.3053207
160	0xbe61a49d	-0.22035451
161	0xbe4099e4	-0.18808705
162	0xbe00a36a	-0.12562338
163	0xbe53a92a	-0.2067
164	0x3de50f11	0.11184514
165	0xbeadcec5	-0.33946815
166	0x3e0ec78a	0.13943306
167	0xbd813584	-0.063090354
168	0x3d9b669e	0.07587932
169	0x3d0a20c7	0.033722665
170	0x3dc3cdac	0.09560713
171	0xbe891701	-0.26775363
172	0xbe5ccfa7	-0.21563588
173	0xbe54733e	-0.20747086
174	0xbe0d47b7	-0.13796888
175	0x3dda807d	0.106690384
176	0xbd0fec16	-0.03513726
177	0xbe89ce69	-0.2691529
178	0xbce1a74a	-0.02754559
179	0x3dc6628d	0.09686766
180	0xbea74817	-0.32672188
181	0x3e38058e	0.17970869
182	0xbdddd8a9	-0.1083234
183	0xbde80056	-0.11328189
184	0x3e870de1	0.26377776
185	0xbe30d35d	-0.17268129
186	0x3e1a51cf	0.1507027
187	0xbd420f1d	-0.047377694
188	0x3d0ddbba	0.034633376
189	0xbe0a84bf	-0.13527201
190	0xbdc2ed8a	-0.09517963
191	0x3e4ce55b	0.20009367
192	0x3e36f521	0.17866947
193	0x3d03fe18	0.032224745
194	0xbbad627c	-0.0052912813
195	0x3f1445f0	0.57919216
196	0xbd1ed98d	-0.03878169
197	0x3e431218	0.19049871
198	0xbdb5db23	-0.08879688
199	0xbe59511d	-0.21222349
200	0xbdea254c	-0.11432895
201	0xbe2139cf	-0.15744708
202	0xbcf6590b	-0.030071756
203	0x3dbf2c44	0.09334615
204	0xbd390ab2	-0.045176215
205	0x3d8aae3f	0.06771516
206	0x3e21f155	0.15814717
207	0xbd801a94	-0.062550694
208	0xbdbfea96	-0.093709156
209	0x3e3924b3	0.18080406
210	0x3d147ef6	0.036253892
211	0xbca702a4	-0.020387001
212	0x3d9aa667	0.0755127
213	0x3e8bfe9e	0.27342695
214	0xbd11e2af	-0.035616573
215	0x3e92a0f7	0.2863843
216	0x3f12604c	0.5717819
217	0x3d168d27	0.036755707
218	0x3dad1e50	0.08453047
219	0xbdaa3d55	-0.083124794
220	0xbeac63cf	-0.33669898
221	0xbe5f0a01	-0.2178116
222	0x3eb31caf	0.3498282
223	0xbe81d844	-0.2536031
224	0x3ea1973f	0.31560704
225	0xbe419c87	-0.18907367
226	0x3cb1f199	0.021721648
227	0x3da024b3	0.078195
228	0xbd9acab9	-0.075581975
229	0xbde0fcbe	-0.10985707
230	0xbe274085	-0.16333206
231	0xbdd8a4e8	-0.10578328
232	0x3ebcfd80	0.36912155
233	0xbc694780	-0.014238238
234	0xb9d21cb5	-0.0004007571
235	0xbe7a0154	-0.24414569
236	0xbd133572	-0.03593964
237	0xbde44967	-0.11146813
238	0x3e34e14c	0.17664069
239	0xbe35fd1a	-0.17772332
240	0xbd8a806d	-0.067627765
241	0x3d9a8650	0.07545149
242	0xbdb43076	-0.08798306
243	0xbe83c63a	-0.25737172
244	0x3e54e9f7	0.20792376
245	0xbd9d2fb7	-0.076751165
246	0xbd525fef	-0.05136102
247	0x3dc5bda4	0.09655312
248	0x3c4bccdc	0.012438979
249	0xbd547d55	-0.05187734
250	0xbdab62c7	-0.0836845
251	0x3e182c33	0.1486061
252	0xbd01775e	-0.031607978
253	0xbd03bbcb	-0.032161515
254	0xbe8f733b	-0.280176
255	0xbe6dd515	-0.23225816

fc2.bias f4 [64]
0	0x3d0aa0fc	0.033844933
1	0x3c69104e	0.014225079
2	0x3db5a9fb	0.08870312
3	0x3d0ad9c2	0.033899076
4	0x3e117ee4	0.14208561
5	0xbe70878c	-0.23489207
6	0x3bdd719e	0.006757929
7	0xbdb6548e	-0.08902846
8	0x3e33d8a1	0.17563106
9	0x3f1fab91	0.62371165
10	0xbdf17765	-0.11790351
11	0x3e3bd508	0.18342984
12	0xbc51bafe	-0.01280093
13	0xbe76e898	-0.24112165
14	0xbd16e926	-0.03684344
15	0xbd31ca72	-0.043405958
16	0x3cbeed32	0.023306463
17	0xbde168c0	-0.110063076
18	0xbdf836ed	-0.12119851
19	0x3e3dba64	0.18528134
20	0x3e80eb7b	0.25179657
21	0x3e400ddd	0.18755288
22	0xbe6fd2e8	-0.23420298
23	0xbdd33a84	-0.10313895
24	0xbe81484e	-0.25250477
25	0xbe822609	-0.25419644
26	0x3d5155ab	0.05110709
27	0x3d1ebce9	0.038754378
28	0xbe33a07f	-0.17541693
29	0xbdac7bfb	-0.08422085
30	0x3d3d0944	0.046151415
31	0xbd0bde5d	-0.03414761
32	0xbe27a64c	-0.16372031
33	0x3cd29612	0.025706325
34	0xbda79cb3	-0.08184185
35	0xbe13b539	-0.144246
36	0xbdcb35da	-0.09922381
37	0xbe31aef5	-0.17351897
38	0xbd3c8033	-0.046020698
39	0xbd34f14e	-0.04417544
40	0x3d506eca	0.050886907
41	0x3f2cf212	0.6755687
42	0x3f0269ea	0.5094286
43	0x3da98eb2	0.0827917
44	0x3d773389	0.060351882
45	0xbe8ae1fc	-0.27125537
46	0x3f022744	0.50841165
47	0xbe13a4c5	-0.14418323
48	0x3e3edac0	0.18638134
49	0xbde2e7d1	-0.11079372
50	0xbe1f5f1a	-0.15563622
51	0x3f1eba80	0.62003326
52	0xbb77ecc0	-0.0037830323
53	0x3ec4c339	0.38430193
54	0x3e96e97a	0.29475003
55	0xbe484cb4	-0.1956051
56	0xbe6a7a5a	-0.22898236
57	0xbe3d2007	-0.18469249
58	0x3cca5945	0.02470077
59	0x3e6a4b7f	0.22880362
60	0x3d869d13	0.06572928
61	0x3e89abc2	0.26888853
62	0x3d8d3d06	0.06896405
63	0xbe106660	-0.14101553

fc3.weight f4 [4, 64]
0	0x3e161c03	0.14659123
1	0x3d5c31f2	0.05375857
2	0x3daffe4b	0.085934244
3	0x3c0aedea	0.008479575
4	0x3ee41702	0.44548804
5	0xbf597af6	-0.8495325
6	0x3f06947e	0.5257033
7	0xbe47d5a7	-0.19515096
8	0x3ed9a6a1	0.4250994
9	0x3e0f3757	0.13985954
10	0x3eb12e7e	0.34605783
11	0x3e87913e	0.26477998
12	0x3e2e0ae4	0.16996342
13	0x3e927971	0.28608277
14	0xbd4f4a4a	-0.050607957
15	0xbf918078	-1.136733
16	0x3e8959ce	0.26826328
17	0x3d9feed3	0.07809224
18	0xbea7b6a2	-0.32756525
19	0x3e7cdbd3	0.24693231
20	0x3e728425	0.23683222
21	0x3e906624	0.28202927
22	0xbe6f8f89	-0.23394598
23	0xbd08f303	-0.03343488
24	0xbeb44563	-0.35209188
25	0xbe4ad921	-0.1980939
26	0xbec6e243	-0.388445
27	0x3f1cee0b	0.61300725
28	0xbec49265	-0.3839294
29	0xbead8d64	-0.33896935
30	0xbf9d7c64	-1.2303586
31	0x3e5221ac	0.20520657
32	0x3e021527	0.12703381
33	0x3ed76065	0.4206573
34	0x3e04450a	0.12916961
35	0x3ecb8cee	0.39755958
36	0xbe6fcd54	-0.2341817
37	0xbf9c0642	-1.218941
38	0x3e42fa4c	0.19040793
39	0x3f30909d	0.6897066
40	0x3e9ca998	0.3059814
41	0x3e89896e	0.26862663
42	0x3e530650	0.20607877
43	0x3e53329f	0.20624779
44	0x3e4c77b8	0.19967544
45	0xbf08097f	-0.5313949
46	0x3e738e01	0.23784639
47	0xbd04db0a	-0.032435454
48	0x3e08912e	0.13336632
49	0x3e7f9d5b	0.2496237
50	0xbe04d13b	-0.1297044
51	0x3e1ac2a4	0.15113312
52	0x3e9a6ea2	0.3016253
53	0x3e8b84b3	0.2724968
54	0x3e04259d	0.12904973
55	0xbe3f0a3f	-0.18656252
56	0xbe4e4080	-0.20141792
57	0x3ec1f366	0.3788101
58	0x3dfc4a4b	0.12318858
59	0x3d5c3800	0.053764343
60	0x3e7b299b	0.2452759
61	0x3e6ee3a9	0.23329033
62	0xbe0fd400	-0.14045715
63	0xbde24f1d	-0.11050246
64	0x3e376111	0.17908122
65	0xbdb25b25	-0.08708791
66	0x3d9a8ff3	0.075469874
67	0xbd005d1d	-0.0313388
68	0x3eff4b3f	0.49862096
69	0xbf3d4914	-0.73939633
70	0x3e28c349	0.16480745
71	0xbea3ef51	-0.3201852
72	0x3e8b2d3b	0.27182946
73	0x3e3115c3	0.17293458
74	0xbe2b3c0f	-0.1672213
75	0x3e3ec9e7	0.18631707
76	0x3f28e9f4	0.65981984
77	0xbc43ebe1	-0.011958093
78	0x3e6b7d8e	0.22997114
79	0x3f366475	0.71247035
80	0xbf4bf6c7	-0.7967343
81	0xbc6e52df	-0.014546125
82	0xbe7038bb	-0.23459141
83	0x3e8aeaef	0.27132365
84	0x3d72d513	0.059285235
85	0x3e9ffcef	0.3124766
86	0xbdf8ff3d	-0.12158058
87	0x3dca37f2	0.09873952
88	0xbe4b08b6	-0.19827542
89	0xbe4644f1	-0.19362237
90	0xbdc37d98	-0.095454395
91	0xbf293d23	-0.6610891
92	0xbedc1a6d	-0.4298891
93	0xbe800886	-0.25006503
94	0x3dc772b7	0.09738677
95	0x3ce16b07	0.027516855
96	0xbf2bad8a	-0.67061675
97	0x3ee50f92	0.44738442
98	0x3f43470e	0.76280296
99	0xbf45db2d	-0.7728756
100	0xbd083d13	-0.03326137
101	0xbe679b04	-0.22617728
102	0x3e8291a3	0.25501737
103	0x3f38bc5b	0.7216241
104	0x3e92db1f	0.286828
105	0x3e61d953	0.22055559
106	0x3e4d52ae	0.20051071
107	0x3e3930bf	0.18085001
108	0x3e8f2aa0	0.27962208
109	0xbcec2752	-0.028827343
110	0x3e860dc2	0.2618237
111	0xbf400a28	-0.750155
112	0x3d7d5cc5	0.06185605
113	0x3e00b100	0.1256752
114	0xbe82a78b	-0.2551845
115	0x3e1fc4d0	0.15602422
116	0x3e8d3cc4	0.27585423
117	0x3e7d18d3	0.24716501
118	0x3ddec873	0.108780764
119	0xbdfe0841	-0.12403918
120	0xbe44827b	-0.191904
121	0x3c9981f8	0.018738732
122	0x3e68238f	0.22669815
123	0xbd71052e	-0.05884283
124	0x3ebda6a8	0.3704121
125	0x3ddcd5a5	0.10782937
126	0xbf0ba642	-0.54550564
127	0xbe16425a	-0.14673749
128	0x3e376975	0.17911322
129	0x3d0332fd	0.032031048
130	0x3e646cfc	0.22307199
131	0x3f07b5ab	0.5301158
132	0x3f0be9da	0.54653704
133	0xbe490800	-0.19631958
134	0x3e6243d6	0.2209619
135	0x3c619438	0.013768248
136	0x3b0116a7	0.001969734
137	0x3e42ce7c	0.1902408
138	0xbf91eaae	-1.1399744
139	0x3e824529	0.2544339
140	0x3f00214a	0.50050795
141	0xbf30f3b0	-0.6912184
142	0xbd10df8f	-0.035369452
143	0x3ef95b9c	0.48702705
144	0x3f1e7b6e	0.6190709
145	0xbf149ed6	-0.58054864
146	0xbcc18457	-0.023622675
147	0x3c546f5e	0.012966005
148	0x3cbb56fb	0.022868624
149	0x3ea0f3d6	0.31436032
150	0xbea87a33	-0.3290573
151	0x3cbb1706	0.022838127
152	0xbdec7fa1	-0.11547781
153	0xbe2c965b	-0.16854231
154	0xbea1275a	-0.31475335
155	0xbea540b8	-0.3227594
156	0xbf2a7531	-0.6658507
157	0x3e5dcca3	0.21660094
158	0xbe2f7419	-0.17134131
159	0x3c601e05	0.013679032
160	0xbece9913	-0.4035116
161	0xbcc4660f	-0.023974447
162	0x3f582e20	0.8444538
163	0x3e8eb0e6	0.27869338
164	0xbf21c98d	-0.6319817
165	0xbf3781db	-0.7168252
166	0x3d423be9	0.047420416
167	0xbea42242	-0.32057387
168	0x3e6db153	0.23212175
169	0x3e3472ef	0.17621969
170	0x3e5da0a8	0.21643317
171	0x3dbe649c	0.092965335
172	0x3ef79c8c	0.48361623
173	0xbe9d1d7f	-0.30686566
174	0x3e5219ce	0.20517656
175	0x3e93178b	0.287289
176	0x3e9cde65	0.30638424
177	0x3f004bff	0.5011596
178	0xbeba6c45	-0.36410728
179	0x3e9997a9	0.2999852
180	0x3e24202f	0.16027902
181	0x3e843c2b	0.25827155
182	0x3e321ad4	0.17393047
183	0x3d73eddb	0.05955301
184	0xbe1f6626	-0.1556631
185	0xbe047f13	-0.129391
186	0x3ae5ddec	0.0017537451
187	0x3d697e8c	0.05700545
188	0xbf151763	-0.5823881
189	0x3e6d6122	0.23181584
190	0xbf420f44	-0.75804543
191	0xbeb4cf01	-0.3531418
192	0x3de2d2bd	0.110753514
193	0x3e80920e	0.2511143
194	0x3e8ebc14	0.27877867
195	0xbd5078d6	-0.050896488
196	0x3ea352ef	0.3189921
197	0xbe52e0ab	-0.20593517
198	0x3ef18d2d	0.4717802
199	0x3dbfed5c	0.093714446
200	0x3e1c7a69	0.15281071
201	0x3e88ad3e	0.26694673
202	0x3ef921b3	0.48658523
203	0x3e3bec69	0.18351902
204	0x3f080fb6	0.53148973
205	0x3db6e15a	0.08929701
206	0x3eb38eb9	0.35069826
207	0x3e6781d5	0.2260812
208	0x3f2f5d3a	0.6850163
209	0xbc4db84e	-0.012556149
210	0x3c0258d9	0.007955753
211	0x3e27cbf3	0.16386394
212	0x3ea11c0b	0.31466708
213	0x3e84773b	0.25872216
214	0xbd26abb9	-0.04069111
215	0x3d5abdcb	0.053403657
216	0x3c00e3e5	0.007866834
217	0xbeb47c74	-0.352512
218	0xbf1b390d	-0.6063393
219	0x3f00b9d8	0.50283575
220	0x3e4c82d9	0.1997179
221	0xbec86c45	-0.39145103
222	0xbed7d04d	-0.42151108
223	0x3f0654de	0.5247325
224	0xbf2afc70	-0.6679144
225	0x3d78d17b	0.06074665
226	0xbe1036c7	-0.14083396
227	0xbeaad359	-0.3336437
228	0xbf02017a	-0.50783503
229	0xbed82ce7	-0.42221758
230	0xbf63b093	-0.88941306
231	0x3f132ed6	0.5749334
232	0x3e7ba329	0.2457396
233	0x3e8ba3ed	0.27273503
234	0x3e32cb22	0.17460302
235	0xbe50487f	-0.20340155
236	0x3f0a2245	0.5395854
237	0xbc7601a4	-0.01501504
238	0x3e0a1fd1	0.134887
239	0xbee4d7bf	-0.4469585
240	0x3d7a926e	0.061174802
241	0x3dac8253	0.08423295
242	0xbf4df3ad	-0.80449945
243	0x3e3d18af	0.18466447
244	0x3eea0314	0.45705473
245	0x3e7b0a49	0.24515642
246	0x3e5dcfca	0.21661296
247	0x3e87822a	0.26466495
248	0xbed83d23	-0.42234144
249	0xbef0342e	-0.4691481
250	0xbf9f89b8	-1.2463903
251	0x3e8a3e12	0.2700048
252	0xbf5ca2d7	-0.86185974
253	0x3dbab7bc	0.09117076
254	0xbe7f8cd5	-0.24956067
255	0xbdec2d71	-0.11532105

fc3.bias f4 [4]
0	0x3ed9a1c1	0.4250622
1	0x3ec1dbd6	0.37863034
2	0x3eabf71a	0.3358696
3	0x3ea066c7	0.31328413
