checkpoint.pth (torch_old, 21039 bytes, 6 tensors)

fc1.weight f4 [64, 8]
000000 08 e6 ce 3e 67 2b c5 3e 45 a1 47 be 9f 57 66 bf
       0.40409875 0.38509676 -0.19495113 -0.8997745
000010 b5 cc a1 3f d2 08 45 3e 1f 7d 23 3d f8 91 c1 3e
       1.2640597 0.19241646 0.039914247 0.37806678
000020 c9 c8 d5 3e a1 1a 8f 3b 29 8c af 3e f2 1d 8c 3e
       0.4175475 0.004367188 0.3428662 0.27366596
000030 4b aa 0f be a3 56 65 bf 6a 69 fc be 67 98 4b be
       -0.14029805 -0.8958532 -0.49299175 -0.19882356
000040 61 46 0e 3f 66 32 ba 3e 82 10 0f bc ed a2 81 bf
       0.5557614 0.36366576 -0.008731963 -1.0127846
000050 d5 31 72 3f fd 8f e8 3d 60 64 23 bd e4 ba bc 3d
       0.9460729 0.113555886 -0.039890647 0.09215334
000060 10 a3 a6 ba 60 f0 bc bd c2 23 b5 3f cd 99 12 c0
       -0.0012713391 -0.092255354 1.4151537 -2.2906373
000070 02 fd 81 be 20 cb a1 bd 18 7b f2 3d 0b f7 93 3d
       -0.25388342 -0.07900071 0.118398845 0.07224854
000080 8d d9 53 bf b2 02 35 bf 1c 8a 07 bf c9 61 57 bf
       -0.8275383 -0.7070724 -0.52945113 -0.84133583
000090 8d ee 0b 3f 17 62 a0 3d 73 54 0f 3e 36 cb 29 be
       0.54660875 0.07831209 0.13997059 -0.16581425
0000a0 00 9e 06 bf 19 01 d3 be f3 61 98 3e 58 5f 2e bf
       -0.5258484 -0.41211775 0.2976223 -0.68114233
0000b0 72 36 2d bf 5e ad 93 be 80 95 8c 3e c9 6c 65 3e
       -0.676612 -0.28843206 0.2745781 0.2240478
0000c0 50 1f 99 be 2e 0c 05 be 0b 75 21 3e 26 b1 01 3e
       -0.29906702 -0.12992927 0.15767305 0.12665233
0000d0 6c 54 f0 3e 93 49 01 3f 8b 31 c8 3e b3 d1 ee be
       0.4693941 0.5050289 0.39100298 -0.46644363
0000e0 1d 9d 54 be 1c ab 1f bf 3e f1 a6 be c5 fd 7d bf
       -0.20763059 -0.6237047 -0.32605928 -0.99215347
0000f0 83 94 2a 3f 65 03 b9 3c c1 bc b1 be b7 f4 9d bc
       0.6663286 0.022584626 -0.3471432 -0.019281728
000100 d6 27 75 3f e0 aa 83 3b 62 81 13 3f d8 b4 0c 3e
       0.9576391 0.0040181726 0.576193 0.13740861
000110 cc b3 f6 3e c6 52 15 3f c2 3c 24 3e 8d 42 e1 3c
       0.4818405 0.5832943 0.16038802 0.027497554
000120 b8 3d 34 be 2b 33 df 3e c8 f8 fa 3e 82 3b 4a 3f
       -0.17601669 0.43593726 0.4901793 0.7899705
000130 6c 76 4c bf cc 86 4b bf e6 b9 8b bf a6 9e e9 3d
       -0.798682 -0.7950256 -1.0916107 0.11407213
000140 e6 80 1b be bb f3 3b 3f 1a 4a aa bd 7e de 3b bf
       -0.1518589 0.7341878 -0.08314915 -0.7338637
000150 7c 20 d6 3e f2 3c 5c 3e 4a 98 c4 bd 78 2b 39 bf
       0.4182166 0.21507624 -0.09599359 -0.72331953
000160 1b 85 bc 3d bd e0 e8 3e 99 25 c9 3e 33 34 73 3f
       0.09205075 0.45483962 0.39286497 0.95001525
000170 b7 61 e8 3e 12 0c 83 3e 0e 3c a7 be 7c fd 90 be
       0.4538705 0.25595146 -0.32663006 -0.28318393
000180 f9 5c 6a 3d 57 dd 81 bd 5e 00 01 3e 0c 14 e3 be
       0.057217572 -0.06341045 0.12597796 -0.44351232
000190 2c 12 85 be ce 4e 49 3f 1a 25 23 3e 51 a8 41 bf
       -0.25990427 0.7863587 0.15932122 -0.75647455
0001a0 5f 07 c5 be 9e 7e 01 bf 24 2d 9c be bc 6d 7c bf
       -0.38482186 -0.5058383 -0.3050319 -0.9860494
0001b0 f5 81 40 3f 4f 5f 2d 3d 4c 16 6b be 0b 46 96 3c
       0.751983 0.04232722 -0.22957724 0.018343946
0001c0 cd 41 30 bc cc 54 e0 3e 17 02 60 3d 3d 02 79 bf
       -0.010757876 0.43814695 0.054689493 -0.9726904
0001d0 f4 2f 92 be 6f d4 20 be 92 ed 88 bd df e5 83 be
       -0.2855221 -0.15706037 -0.06685938 -0.25761315
0001e0 64 49 b6 3e 11 30 20 3e a9 70 da 3e dd 06 44 3e
       0.35602868 0.15643336 0.42664078 0.19143243
0001f0 d7 1e 82 bf 83 44 82 bf 6e 13 26 bf c1 3e 95 be
       -1.0165662 -1.0177158 -0.648734 -0.2914944
000200 84 5f a0 be 02 ac 0c bf 86 c2 88 3e c4 de 4c bf
       -0.31322873 -0.54949963 0.2671091 -0.80027413
000210 12 0a 05 bf 7e 24 c2 3b d3 bb d4 3e 57 73 26 3c
       -0.5196849 0.0059247604 0.41549549 0.010159335
000220 f5 4c 11 be 20 5f 21 be 8e 96 97 be a6 03 6a 3f
       -0.14189513 -0.15758944 -0.29607052 0.9141182
000230 9e ef bc bd a8 03 2c 3f c2 95 48 3f ad 28 60 be
       -0.09225391 0.6719308 0.7835351 -0.21890517
000240 aa 9d ad be 71 ae d1 bd 97 bf 96 3e 85 82 e6 be
       -0.3390935 -0.1023835 0.29443046 -0.45021453
000250 11 b3 1e bd bf 73 58 bf 45 ca a3 bf 67 74 a8 3d
       -0.03874499 -0.84551615 -1.2796103 0.08225327
000260 56 b9 c4 3e 25 d3 ec 3e e1 21 e2 be 85 f8 8d bf
       0.3842265 0.4625484 -0.44166473 -1.1091467
000270 c8 b5 4b 3f ec d3 b8 bf 46 01 ec be 8f e0 07 bf
       0.7957425 -1.4439673 -0.46094722 -0.53077024
000280 3a d7 b9 3e 5f b2 ae 3e 50 31 b3 bf 9e 3d ad be
       0.36297017 0.3412046 -1.3999424 -0.33836073
000290 34 3c 1c be 94 3b d4 be dd 5e f8 be 18 b0 b9 be
       -0.1525734 -0.41451705 -0.48509875 -0.3626716
0002a0 25 98 33 bd b9 8e ac bc fb 7a 13 40 fa 7d f6 3d
       -0.04384627 -0.02106415 2.3043811 0.12035747
0002b0 d4 62 48 3e 4b f7 c1 bc 6d 35 ee be b9 05 c4 bd
       0.1956895 -0.023677489 -0.46525136 -0.09571404
0002c0 83 1a 13 be 8a e4 8c bf eb 31 07 3f b0 10 79 bf
       -0.14365582 -1.1007245 0.52810544 -0.9729109
0002d0 bd 66 1f bf 03 65 9e 3b c8 0d 98 3e 7f 12 8f 3d
       -0.6226614 0.004833819 0.29698014 0.0698595
0002e0 33 58 46 3f 25 dd e8 bb c2 09 ed 3e 0b ae fb be
       0.7747833 -0.0071064406 0.46296507 -0.49156222
0002f0 4e 8f a2 be 86 b7 5b 3e e4 d8 11 3f 1d 63 f7 bc
       -0.31749958 0.21456727 0.56971574 -0.030198628
000300 32 df 51 bf 8f 89 0b bf 0c b0 e9 be 43 2c 9e bf
       -0.81981194 -0.5450677 -0.45642126 -1.2357258
000310 57 a2 c4 bc d6 1c e3 bc bb fc 7a bd 11 79 91 be
       -0.02400319 -0.027723711 -0.06127618 -0.2841268
000320 d7 65 0d bf 6a 9e 19 3e e2 39 00 be 69 52 2d 3e
       -0.5523352 0.15001836 -0.1252208 0.16925968
000330 e5 e8 cf 3c a0 b5 c9 3e 45 1a 88 3e 26 92 ef 3e
       0.025379607 0.3939638 0.26582542 0.4679119
000340 a4 a6 b9 3c d2 9b 7e 3b ba f9 58 3d f6 f5 7e 3e
       0.022662468 0.00388502 0.052972533 0.24898514
000350 82 1b 40 3c f9 66 14 bf f9 56 fe 3d 07 d3 27 3f
       0.011725308 -0.57969624 0.124189325 0.6555638
000360 a2 c0 fc bd 83 e2 5a bf 5e 40 6f 3e 4e 0f 8e bf
       -0.12341429 -0.8550188 0.23364398 -1.1098421
000370 55 0e 9b be 99 82 a4 3d 51 76 0c be 6e 27 2f be
       -0.30284372 0.08032722 -0.13717009 -0.17104885
000380 06 22 f8 bd 54 59 ae 3e e5 93 23 bf 67 a5 88 bf
       -0.121158645 0.34052527 -0.63897544 -1.0675477
000390 01 0c a0 3f d1 46 3c be 51 ee 90 be 6b 2c b6 3e
       1.2503663 -0.1838639 -0.2830682 0.35580763
0003a0 3f 54 8e be 73 66 56 3f cf 17 e4 3e 2f e4 9c be
       -0.2779865 0.83750075 0.44549415 -0.3064284
0003b0 38 f3 f0 3e a1 05 38 3e 49 e7 44 bf 63 4d 3d bf
       0.4706056 0.17970897 -0.76915413 -0.7394621
0003c0 52 dc 6e be df 15 2c 3e 41 0f c1 bf 84 e1 80 be
       -0.23326233 0.16805218 -1.508278 -0.25172055
0003d0 a4 ed 0a 3f 91 ca be bf 52 9b 94 3d 2b 63 94 3d
       0.5426886 -1.4905568 0.072561875 0.07245477
0003e0 79 8b e3 3d a1 46 78 3e 1e c5 d5 be 57 23 10 3e
       0.11110587 0.24245693 -0.4175195 0.14075981
0003f0 aa 43 55 3f a8 d3 03 3f 7e aa 26 be e1 a3 06 bf
       0.8330637 0.51494837 -0.16275975 -0.5259381

fc1.bias f4 [64]
000000 d0 17 89 3e e7 ca 66 be 08 96 14 3f ca e9 eb bb
       0.2677598 -0.22538339 0.5804143 -0.0071995007
000010 35 76 8e be 23 0e 93 be 71 ef 88 3e 35 c3 a5 be
       -0.2782456 -0.28721723 0.2674518 -0.32375494
000020 ad 57 e8 3d 5b e0 0d 3e 77 5a 04 3f 0e 05 10 be
       0.11344848 0.13855116 0.5170054 -0.14064428
000030 19 da fc be d5 8b b1 be 32 2e 18 3f 1e 1c 55 3e
       -0.49385145 -0.34676996 0.5944549 0.20811507
000040 48 f3 9d bd c3 56 5a be be da cc 3e 5e 58 36 3f
       -0.07712418 -0.2132216 0.40010637 0.7122859
000050 85 7b 84 be ce 29 b6 ba 94 5d f6 be 32 c6 19 bf
       -0.25875488 -0.0013897957 -0.4811827 -0.6006805
000060 1d 82 f5 bd 8d 6e c2 be 97 66 26 bd c4 df cf be
       -0.11987708 -0.3797497 -0.04062518 -0.40600407
000070 4c 06 a4 3e 0d 4d 61 be a8 ac 41 3e 01 ad 16 3e
       0.32036054 -0.22002049 0.1891352 0.14714433
000080 0e 90 9c bd e3 68 89 3e 74 ce ff bc b3 da a0 bc
       -0.07644664 0.26837835 -0.031226374 -0.019635534
000090 20 f7 f9 3d 05 e2 cc 3e 97 be ab be 01 b1 03 3e
       0.122053385 0.4001619 -0.33543846 0.1286049
0000a0 8c 93 27 3e 27 4c aa be be 77 04 3e 25 3c c3 bc
       0.16364878 -0.33261225 0.12936303 -0.02383239
0000b0 bd 38 8d be 1a 89 09 3e 2b 60 50 3c af b0 83 3e
       -0.2758235 0.13431206 0.012718241 0.25720736
0000c0 9d 96 69 3b ba ae c6 3d c0 64 8a 3e f1 d4 0d 3f
       0.003564275 0.09701295 0.2702999 0.5540305
0000d0 1d 48 96 be 5b e8 1a 3f 5f ce 8f be a5 88 1d be
       -0.29351893 0.60510796 -0.28087136 -0.15384157
0000e0 7a 9f c7 bd a1 a0 1f 3f 8a 0b 1c 3f af 42 61 3e
       -0.097472146 0.62354475 0.6095511 0.21998094
0000f0 74 3b a6 bd 60 ca 8b be 70 78 b7 be 5a 26 dc 3b
       -0.081168085 -0.27302837 -0.35834074 0.006718439

fc2.weight f4 [64, 64]
000000 04 4e 58 bd 70 a7 3f 3e ed e6 c1 3d 06 6a ae be
       -0.052808776 0.18716216 0.09467874 -0.34065264
000010 89 9a b5 3e af a6 b7 3d 8a b0 69 3e 14 a7 89 3e
       0.35469463 0.08967339 0.2282125 0.26885283
000020 e3 2d e3 3d 26 62 82 3d e7 e0 ec 3c 57 60 5c be
       0.110927366 0.063663766 0.028915836 -0.21521126
000030 80 68 00 3f 61 c0 5e 3e 91 b5 4d 3d 32 ef 08 3f
       0.50159454 0.21753074 0.050221983 0.53489983
000040 d4 d5 2b bc eb d8 1f 3f 03 c6 e6 3e 7d 00 3b 3d
       -0.010487992 0.62440366 0.45072946 0.045654763
000050 4e ca 3e be 0e 82 9a bf d2 57 14 3f 41 07 7a 3f
       -0.1863186 -1.207094 0.57946503 0.9766732
000060 85 a3 bb be ae 00 54 be 00 dc 88 bd 93 a4 ca 3e
       -0.36648193 -0.20703384 -0.06682587 0.39578685
000070 d5 c4 09 be 0e 78 50 bf 8d 43 36 3d ee 6d 93 3e
       -0.13453992 -0.8143319 0.044498015 0.28794807
000080 af a3 8b be 44 b0 88 3e 62 57 6a bf 17 7e 2c bf
       -0.27273318 0.2669698 -0.91539586 -0.673799
000090 db fc 06 3f f4 77 4a be 30 9d 35 3d 06 b6 19 3f
       0.52729577 -0.19772321 0.04433936 0.6004337
0000a0 9e dd d3 3d 60 88 77 3d 04 75 99 3e 0f cd 21 bf
       0.103450045 0.06043279 0.29972088 -0.6320352
0000b0 b0 87 0e 3d 36 37 ca 3e 9c 17 07 c0 d2 d4 ce be
       0.03479737 0.39495248 -2.110816 -0.40396744
0000c0 68 c5 1b 3b 2b 5f 99 be 3e 6c a9 be 30 b6 15 bd
       0.0023768786 -0.2995542 -0.33090395 -0.0365507
0000d0 6e fd b1 bd 3c 46 20 3d c5 5f b9 3e 21 f8 61 3e
       -0.08690916 0.03912948 0.3620588 0.2206731
0000e0 57 e2 3f bd 52 d3 6a 3d f0 d2 b1 3e 7e 8d 5b bd
       -0.046846714 0.057330437 0.34731245 -0.053601734
0000f0 e7 4d 84 3e ca fc 2a be 6c bc be 3d 4a 72 1e 3f
       0.25840685 -0.16697994 0.09313282 0.6189314
000100 78 b5 bc bd c6 31 d2 bb 64 99 ae 3c f0 d1 ce bc
       -0.092143 -0.006414625 0.021313377 -0.02524659
000110 e3 da cd bd b6 ff b3 3d 15 03 db bd 4e f9 ac 3d
       -0.10051515 0.08789007 -0.10693947 0.084459886
000120 de 2b f2 bd 22 07 62 bd e2 52 c5 3c 3a a1 8a bd
       -0.11824773 -0.055182584 0.024087373 -0.06769033
000130 ec df b0 3d 1e 3f d4 bd 99 d6 18 be 89 83 72 bd
       0.0863646 -0.10363601 -0.14925613 -0.059207473
000140 83 96 d6 bb db 0c ca 3d 5b 48 af bd 08 f3 bd 3b
       -0.006548704 0.09865733 -0.085587226 0.005796794
000150 04 48 45 bd 0e 9d 36 bd 4c f9 7f 3d 0a 43 0f be
       -0.048164383 -0.044583373 0.062493607 -0.13990417
000160 8e 11 bd bb 54 98 cb 3d ab 1f 05 bd 00 21 6d 3d
       -0.005769915 0.09941164 -0.032500904 0.0578928
000170 82 67 5b bd 06 0e 90 3d 7c d6 24 be d5 3b d6 bc
       -0.05356551 0.07033925 -0.16097444 -0.026151577
000180 9d 02 2c bd a2 f2 af 3c 19 d7 99 3c e4 bc a6 3d
       -0.04199468 0.021478001 0.018779324 0.08141497
000190 c2 b7 f8 bc bd 7f 49 bd ca 4f af 3d 96 23 28 bd
       -0.03036106 -0.049194086 0.085601404 -0.041049562
0001a0 7d 5b ba 3d 96 b7 cf bd 14 a8 37 bd fe 3c 90 bc
       0.09099481 -0.10142438 -0.044838026 -0.017607208
0001b0 05 f5 28 3d 5b 21 8f 3d 34 15 af bc 45 dd 1a be
       0.041249294 0.06988784 -0.021372415 -0.1512347
0001c0 2a 43 81 3d 23 00 ca 3c ba c7 4c 3d a2 fd c5 bd
       0.06311639 0.024658268 0.04999516 -0.09667517
0001d0 11 9e 95 3d c4 0a a2 3d a3 d7 d2 bc d0 a4 05 be
       0.073055394 0.0791221 -0.02573759 -0.13051152
0001e0 6b f8 8d 3d c5 26 04 be df 21 12 bc d5 1b ed bb
       0.069321476 -0.12905414 -0.008919208 -0.007235984
0001f0 d3 20 96 bd 61 0a 03 3d 40 1b 07 be 1b 2b 24 bc
       -0.073304795 0.03199232 -0.13193989 -0.010020043
000200 14 7c 1c 3e 3f 8d 5f 3e 05 90 71 3e e2 cd b0 bd
       0.15281707 0.21831225 0.23590095 -0.08633019
000210 47 6e 50 3f b0 b7 25 3f dc 25 e7 3e 71 23 3e 3f
       0.8141827 0.6473341 0.45146072 0.7427283
000220 73 ba a3 3e 85 10 b4 3d c3 2f 36 3e af 92 c7 3e
       0.31978187 0.08792213 0.17791657 0.38979098
000230 f3 91 dc 3e be b8 4a 3f 2b f8 f8 3d 01 20 49 3f
       0.430801 0.79188144 0.12156709 0.7856446
000240 73 9f aa 3e be 56 cc 3e d4 e9 01 3f ba 1a e9 bc
       0.33324775 0.3990993 0.5074742 -0.028455127
000250 ea bb 21 bf 04 6b 6e bf 97 ee 6d 3f 5e 6d 50 3f
       -0.6317736 -0.9313204 0.92942184 0.8141688
000260 12 ce bf 3e 84 ec fd bc 21 fe 2b 3e 75 b7 8f 3f
       0.37461907 -0.030996569 0.16796161 1.1227862
000270 2e b1 c1 3c 16 9c cf be 42 95 e0 bd 0f 49 59 3f
       0.023644056 -0.40548772 -0.10965969 0.84877104
000280 16 73 87 be c6 64 d1 3e c3 c6 19 bf f2 1e 06 bf
       -0.2645499 0.40897197 -0.6006891 -0.5239097
000290 3f 6b 32 3f ff 36 77 be cc f7 ca 3d 4d 5e c7 3e
       0.69694895 -0.24142073 0.09910545 0.38939133
0002a0 79 8d c0 3e 15 a9 b2 3e b9 c2 4f 3e 55 af 78 bf
       0.37607935 0.34894624 0.20289125 -0.97142535
0002b0 4d 72 f8 3e bf 25 0c 3f d0 35 cd bf 10 e4 3c bf
       0.48524705 0.54745096 -1.6032047 -0.73785496
0002c0 0d 85 0e be 29 02 8e 3e 22 41 76 bf d5 a2 ae 3d
       -0.13917942 0.27736023 -0.96193135 0.085271515
0002d0 75 73 11 3f f3 1f 47 3d 12 86 15 3d 83 70 d4 3e
       0.568168 0.048614454 0.036504813 0.4149209
0002e0 3b a1 a5 3e 98 b2 c4 3d 94 fd 83 3d 31 0d 55 3d
       0.32349572 0.096043766 0.064448506 0.052014533
0002f0 5e 44 aa 3e ac 0e 41 3c 3f 19 67 be 42 11 2e 3f
       0.33255285 0.011783283 -0.22568224 0.67995083
000300 53 23 42 3d 19 54 72 be bc 35 68 3e 81 8c 13 bf
       0.04739697 -0.23664893 0.22676748 -0.57636267
000310 11 6a 8d 3f 80 20 3e 3e 5e 1c 12 3f 51 a4 41 3f
       1.1047994 0.18567085 0.57074535 0.7564135
000320 ea 69 02 3f b0 0c b4 3e d3 1b 5f 3e f4 1a f7 3c
       0.5094286 0.3516593 0.21787958 0.03016422
000330 db 61 01 3f 7a 27 30 3f db 16 78 3e 95 20 23 3f
       0.5053994 0.68810236 0.24227469 0.6372159
000340 6d a9 ca 3c 68 8e fe 3e f8 ae 39 3f dc 61 9d bd
       0.024738992 0.49718022 0.72532606 -0.07684681
000350 01 41 46 bf a5 42 e1 bf a7 eb ab bc 7c ec 5f 3f
       -0.7744294 -1.7598463 -0.020986391 0.8747022
000360 e3 49 7c 3f f7 7c c5 3e 9c be 05 3f d3 41 7d 3f
       0.9855024 0.38571903 0.5224397 0.98928565
000370 07 e5 db 3d 4d 7c cc be 98 c5 e3 3d 58 ce 4a 3e
       0.10737043 -0.39938584 0.111216724 0.19805276
000380 03 a2 6b 3e d0 29 d9 3e 43 c1 67 bf ee 9b 22 bf
       0.23011021 0.42414713 -0.9052927 -0.6351918
000390 53 72 21 3e b5 85 3c 3d 06 90 fe 3d 0f 6d 5a 3e
       0.15766267 0.04602595 0.12429814 0.21330665
0003a0 a6 7d b9 3e a3 72 8e 3c 01 10 e8 3d ad d6 5a bf
       0.36228675 0.017388647 0.113311775 -0.8548382
0003b0 b8 14 a1 3e 43 bf 0f 3f 59 b9 81 bf f7 d8 bc 3d
       0.3146112 0.5615122 -1.0134689 0.0922107
0003c0 45 c7 9c bf 02 6d 02 3f 20 ed 61 bf 86 69 f5 3d
       -1.2248312 0.5094758 -0.8825245 0.119830176
0003d0 8c 52 80 3f b4 d1 9d bb 97 2c a7 3e e4 59 5f 3f
       1.0025191 -0.0048162583 0.32651207 0.8724654
0003e0 f4 40 85 3d 9e 20 aa bc d2 11 92 3e 6f a2 6f 3c
       0.065065295 -0.020767506 0.2852922 0.0146261295
0003f0 0b 53 bc 3e 8c 73 04 3e de 65 23 3e a0 66 ea 3e
       0.36782107 0.12934703 0.15956828 0.45781422

fc2.bias f4 [64]
000000 17 05 fa bc 99 d1 28 be 94 2d 77 be 11 43 6d 3e
       -0.030520005 -0.16486205 -0.2413848 0.23170115
000010 89 fa 57 3e df d9 46 bd 69 0e 60 3e e5 d2 d0 ba
       0.21091665 -0.04854762 0.21880497 -0.0015931992
000020 d4 bd f8 3d d9 87 a9 3c 53 0f 24 3d c4 52 0f bf
       0.12145582 0.02069466 0.040053677 -0.55985665
000030 06 99 33 bf 3f 3f f8 bd 83 64 10 be 42 52 15 3f
       -0.7015537 -0.12121438 -0.14100842 0.5832864
000040 a3 32 11 3e 30 0c a6 bc 36 bd 50 3b fa c0 15 bd
       0.14179473 -0.020269483 0.003185106 -0.03656099
000050 7e 35 5b 3d da 94 7a be 2e 54 8f bd ed 8c f5 bd
       0.05351781 -0.24470845 -0.06998478 -0.1198977
000060 80 5b 6c be 45 65 63 3c 09 de 7f be de b0 3a be
       -0.2308178 0.013879125 -0.24987043 -0.18231532
000070 68 b6 a9 3d 28 df b5 bd 62 ab 4f 3e 3c a0 ea 3e
       0.08286744 -0.08880454 0.20280221 0.45825374
000080 7f 6b 33 be f5 dc 88 3d 96 ad 1d be 75 58 f9 bd
       -0.17521475 0.06682769 -0.15398249 -0.12175075
000090 be d4 73 3b 4e 79 83 bc 1e fd 58 be 95 f8 71 3d
       0.0037205662 -0.016049054 -0.21190307 0.059074957
0000a0 e2 fd 8d 3b 8d 2e 85 3e 86 d7 7b 3d 16 d8 15 3f
       0.0043332437 0.26012078 0.061484836 0.58532846
0000b0 98 82 f1 bd e8 7b c8 3d 68 d4 d9 bd 1c 7f 9e bc
       -0.11792487 0.09789258 -0.106362164 -0.01934772
0000c0 09 7c 5d 3c 65 71 70 3e f6 33 a7 be 7b 43 ca bd
       0.013518342 0.23480757 -0.3265683 -0.09876152
0000d0 94 5b a2 3e 6d 9c ba 3d 23 9f f4 3d 33 c2 12 3f
       0.31710494 0.09111867 0.119444154 0.57327574
0000e0 7b 60 7b 3d 7f 1e 39 bd 3e 4e d8 3d 5b cf 11 3e
       0.061371308 -0.0451951 0.105617985 0.14239256
0000f0 5d fd c7 be 82 61 6f be 99 25 1e bd 74 48 3a 3c
       -0.39060488 -0.2337704 -0.038610075 0.011369813

fc3.weight f4 [4, 64]
000000 9b 85 39 bf 7d 73 bb 3c f7 5d 44 bf 6f e5 3f bf
       -0.7246949 0.022882218 -0.7670588 -0.7495946
000010 69 93 63 bf 1b 6c 40 bf 8d 22 3c 3f 61 c3 01 3e
       -0.88896805 -0.75164956 0.7349022 0.12672187
000020 e6 dc c0 3f f3 10 95 3f f3 01 3d bf 3e b6 74 bf
       1.5067413 1.1645797 -0.738311 -0.9559058
000030 d1 0d c1 bf 9e ee 31 bf 08 c0 7a bf f3 70 5b 3f
       -1.5082341 -0.69504726 -0.97949266 0.8571922
000040 2a f8 d6 3e 83 b5 14 bf 31 ba 23 bf 6c f0 10 bf
       0.4198621 -0.58089465 -0.6395598 -0.56616855
000050 8a 5b 54 bf 6a 91 b2 bf b4 2a bc 3d e0 2d 3b bc
       -0.8295218 -1.3950627 0.091878325 -0.011424512
000060 bf d2 8b bf 50 f0 53 3f 80 f1 88 be cf be 61 bf
       -1.092369 0.8278856 -0.2674675 -0.88181776
000070 28 32 01 bf 54 f7 97 bf 24 47 83 3f 09 cd 6d 3f
       -0.5046716 -1.1872354 1.0256085 0.92890984
000080 fd c7 1e bf 9d 2a f6 3e 5d 84 21 bf 68 40 dc bd
       -0.6202391 0.48079386 -0.63092595 -0.10754472
000090 86 e5 b5 3f 82 d6 4a bf 67 93 55 bf 64 ed 59 bf
       1.421067 -0.7923356 -0.83428043 -0.85127854
0000a0 51 13 06 bf 1f 42 c7 be 17 30 94 3f ad db 09 3f
       -0.52373224 -0.38917634 1.1577176 0.53850824
0000b0 af 8d 37 3d cc f3 05 bd da a0 98 3d 01 e0 0d bf
       0.044812854 -0.032703206 0.07452555 -0.5541993
0000c0 b6 17 40 bf 84 8c 47 be 2d fa 89 bf db 81 f0 be
       -0.7503618 -0.19487196 -1.0779473 -0.46974072
0000d0 21 73 98 3e f0 29 e1 be da ac 36 bf 52 d8 81 3f
       0.29775336 -0.43977308 -0.713575 1.0144141
0000e0 21 de 10 be f0 b3 47 bf e4 16 5c 3f a4 75 2a bf
       -0.14147235 -0.7800894 0.8597243 -0.66585755
0000f0 40 5e 9a bf 3b e6 35 bf 8e 3b 78 3d 0f 8e 1a bf
       -1.2060013 -0.7105443 0.06060367 -0.60373014
000100 dd 6f 80 be f4 fd 5c ba 94 c0 30 bf 42 4b 36 bf
       -0.25085345 -0.0008430176 -0.6904385 -0.71208584
000110 80 2c 6f bf 96 1d 38 bf e7 8e fd 3e 7f c4 a0 bc
       -0.93427277 -0.71920145 0.49523088 -0.019624947
000120 0e 76 ad 3f 9f 6c 97 3f 1b fc 2e bf 70 ba 81 bf
       1.3551652 1.1830024 -0.6835343 -1.0135021
000130 f6 d5 de bf a3 5b 26 bf 58 88 48 bf 55 71 45 3f
       -1.7409046 -0.64983577 -0.78333044 0.77126056
000140 d3 8d 0a bd 91 d9 c7 be 80 49 19 bf bc f3 14 bf
       -0.03382666 -0.39033177 -0.5987778 -0.5818441
000150 3d 1a 34 bf b6 c4 55 bf ce f4 0d 3d 40 12 7a bd
       -0.70352536 -0.8350328 0.034657292 -0.06105256
000160 70 2f b5 bf 2f d2 7e 3f a6 7f 0d 3e ac af 50 bf
       -1.4155102 0.99539465 0.13818225 -0.81518054
000170 ac fd 26 bf 4d c6 b6 bf d6 ba 51 3f 51 42 80 3f
       -0.6523082 -1.4279267 0.81925714 1.0020238
000180 7f 9a 80 bf 4a e8 06 3f f0 62 78 bf 55 08 df 3d
       -1.0047148 0.52698195 -0.97025967 0.10890261
000190 32 a8 ae 3f d9 f9 55 bf a4 38 3c bf 2e 30 f3 be
       1.3645079 -0.8358436 -0.73523927 -0.47497696
0001a0 20 48 4a bf 46 82 48 bf 18 5d 9b 3f 7a aa 5f 3f
       -0.79016304 -0.7832378 1.2137785 0.873695
0001b0 5b ea 54 bd 60 1a 2f 3c cc fa d0 3d f9 ce 0f bf
       -0.05198131 0.010687441 0.10204086 -0.5617519
0001c0 12 df 28 bf 23 60 c4 be 36 14 84 bf 2e 53 63 be
       -0.6596538 -0.38354596 -1.0318668 -0.221997
0001d0 4a a6 28 3e 11 2d 51 be ec fd 5f bf 85 fe 60 3f
       0.16469684 -0.20427348 -0.8749683 0.87888366
0001e0 0f bc bf be 91 8b 49 bf 9d 32 7b 3f a0 93 5e bf
       -0.37448165 -0.78728586 0.98124105 -0.8694401
0001f0 1f ce 39 bf 84 f8 0d bf a7 a7 da 3d 3c 2f 0d bf
       -0.7258014 -0.5545733 0.106765084 -0.551502
000200 af a4 5c bf 20 8b c0 bd 02 bd 6a bf 97 dd e4 be
       -0.8618879 -0.09401536 -0.91694653 -0.4470031
000210 f7 d4 dd bd ad 8d 21 bf a9 a0 9f be f4 10 30 bf
       -0.108316354 -0.63106805 -0.3117726 -0.6877587
000220 bd 07 8f 3f 15 63 1b 40 a3 68 0e bf df ac 98 bf
       1.1174237 2.4279225 -0.5562841 -1.1927756
000230 aa a9 83 bf 38 54 2b bf 16 27 80 bf 0d 2b 11 3f
       -1.0286152 -0.6692538 -1.0011928 0.56706315
000240 f7 7e 18 bf 7a 23 7c bf e9 67 4a bf 98 be 23 bf
       -0.5956873 -0.9849163 -0.79064804 -0.639627
000250 d9 09 6a be 51 2f 49 bf 21 59 68 bd f5 cc 7c 3b
       -0.22855319 -0.78587824 -0.056725625 0.0038574312
000260 49 c3 43 bf 47 74 46 3f ce 94 84 bf d1 8f 68 bf
       -0.76469857 0.77521175 -1.0357912 -0.90844446
000270 2d c2 cb be 63 77 07 bf 98 fc f1 3e 9d 26 5c 3f
       -0.39796582 -0.52916545 0.47263026 0.8599642
000280 b0 a1 53 bf ad f0 4c 3f 12 26 41 bf 90 32 4f bd
       -0.8266859 0.8005474 -0.75448716 -0.05058533
000290 31 49 c4 3f d4 89 4c bf 1b dc 6a bf 54 0d 62 bf
       1.5334836 -0.7989781 -0.91742104 -0.8830159
0002a0 4e ca 2c bf 97 10 55 bf 65 f1 5c 3f 43 2b 80 3f
       -0.6749619 -0.8322844 0.8630584 1.0013202
0002b0 65 d8 c8 3c c0 fa 4d bb d5 ff 6f bd 77 3f 0d bf
       0.024517247 -0.0031429976 -0.05859359 -0.55174965
0002c0 58 cb 1b bf 32 d4 39 bf d2 85 8d bf 1c 9c 5d bf
       -0.6085715 -0.7258941 -1.1056464 -0.8656633
0002d0 0e 21 90 bf 24 5d 8b bf ff 01 01 bf 4c 06 a5 3f
       -1.1260087 -1.0887799 -0.5039367 1.2892547
0002e0 5f 59 da 3e f2 e7 4e bf 00 c6 93 3f 5c 50 91 be
       0.4264631 -0.8082267 1.15448 -0.28381622
0002f0 44 77 47 bf c0 a0 52 bf b0 de 75 3d e6 80 1c bf
       -0.7791636 -0.82276535 0.060026824 -0.61134183
000300 61 e1 59 bf 67 e9 a7 3d 9b 6f 25 bf ba 15 6b bf
       -0.85109526 0.08198815 -0.6462342 -0.9183003
000310 b7 86 51 bf 98 a5 46 bf a0 b9 97 3f 66 51 0b bf
       -0.81846184 -0.77596426 1.1853523 -0.5442108
000320 91 df b4 3f e4 16 3b 3f 3b 02 1f bf d8 38 64 bf
       1.4130727 0.73081803 -0.6211278 -0.89149237
000330 62 f5 44 bf fc f7 41 bf 49 64 6a bf 69 a0 8b 3f
       -0.76936924 -0.7576902 -0.91559273 1.0908328
000340 08 0a 4d 3f c2 6e 09 bf 14 c0 d6 be a7 5b 23 bf
       0.8009343 -0.5368463 -0.4194342 -0.63811725
000350 f7 8f 74 bf f1 fb c5 bf 75 6a b9 3c 43 3d 89 ba
       -0.9553217 -1.5467511 0.02263377 -0.0010470528
000360 85 f0 31 bf aa a1 5e 3f d0 a7 e3 be e0 ca 7f bf
       -0.6950763 0.8696543 -0.44463968 -0.9991894
000370 2e 21 1f bf 4c bb 89 bf ff fb 88 3f 9d 74 2b 3f
       -0.62160003 -1.0760283 1.0701903 0.6697481
000380 15 44 ed be 4b 95 2a 3f 77 db ff be a4 61 9b bd
       -0.46341005 0.66634053 -0.49972126 -0.07586983
000390 95 5e ac 3f c8 ae 80 bf 84 0e 4d bf 82 bb 83 bf
       1.3466364 -1.0053339 -0.80100274 -1.0291598
0003a0 b3 06 ff be 6f 4b 0d be 33 bd 81 3f a1 c3 ff 3e
       -0.498098 -0.13798307 1.0135864 0.4995394
0003b0 5f 28 d2 3d 90 64 f3 bd 70 af 20 3d b1 fc 10 bf
       0.102616064 -0.11884415 0.03922981 -0.56635576
0003c0 1c 78 34 bf 53 dc 0c 3e f0 04 4e bf 0d be 43 bf
       -0.7049577 0.13755922 -0.80476284 -0.7646187
0003d0 ad e3 8c 3f 70 38 0f bf 77 c5 57 bf 29 d1 5e 3f
       1.1006981 -0.5594549 -0.8428568 0.87037903
0003e0 2c 6b 55 3e 72 2b 82 bf aa b7 6a 3f 26 dd 1b bf
       0.20841664 -1.0169508 0.916865 -0.6088432
0003f0 0c 0d a5 bf 2e 6a 6b bf 39 1c af 3d f2 d2 ff be
       -1.2894607 -0.9195889 0.08550305 -0.49965626

fc3.bias f4 [4]
000000 3c c6 90 3e df b1 a6 3e f9 3f f5 3e 14 2d 3f 3d
       0.2827624 0.3255758 0.4790037 0.04667385
