checkpoint.pth (torch_old, 21039 bytes, 6 tensors)

fc1.weight f4 [64, 8]
00000000: 35aa 3fbc c7ac a83e ebfb 1cc0 d37f 68bf
00000010: 5c73 753f 75f8 9e3e 8b97 823e 63ef 7f3e
00000020: a335 07be 50e8 303e 18b5 b1bf 00e9 0bbf
00000030: f195 0c3f a11a bcbe ae38 0ebf e8a9 913e
00000040: c998 383e 05b3 a93e a92b 72bf 9414 b4bf
00000050: e709 ad3f 2b6e 673e d29e eabd 6cf8 a83e
00000060: 3332 8fbe 2d4a 8f3e d48e 143f 9f03 d8bf
00000070: 7dc8 78bf eea3 ac3d 0f3f 6c3e bcb2 103f
00000080: e3fa afbe 20dd a5bd 1755 e9be 7951 4cbe
00000090: 26fc 6bbd 6e19 ef3d 8c7e 043f 402b 8f3e
000000a0: 3984 243e aae8 1e3e 3ef9 013f 7e88 adbe
000000b0: 70bf 1ebf e781 e9be 4c3b e63e a0ed 0e3f
000000c0: 76e0 97be e20b 2b3d 9571 c7bc 83be 413f
000000d0: 3027 153f 6dc8 d93e a711 913e 05a2 b8be
000000e0: a08c 033f a582 87be bb37 b3be 5cf1 b8be
000000f0: 498e e43d 9214 0b3d b3ba 3e3e e4bd 843e
00000100: d61b ca3e a67f 74bd fa0e d63e fe30 753d
00000110: a1ad 413f 4ad3 383f bfed d2bc 88bc 72bf
00000120: 0d22 043e c0cb 743e c3c2 c13e 1f9e e63e
00000130: b4fc 09bd e3ed 01bf c6f6 43bf 6e2b 15bf
00000140: df0b 5abf e82d 503f ae4f 543f 2312 b8be
00000150: da52 b3bf da81 493e 8d87 783e 95fd 02bf
00000160: 73e2 b93e cd25 d33d c140 783f 3bb4 083b
00000170: 6698 39be 8280 dd3e 0b3b 5ebd ab81 fdbe
00000180: 6642 143d de54 473d 5ead c2bd e8e9 50bf
00000190: 930d 3e3f 8b9c ec3e 7866 a83e f882 723e
000001a0: 7a07 34bf c90d 273f ee0f 1b3f de4c 09bf
000001b0: 4a78 87bf 473d 1b3f 3a48 553e f278 123f
000001c0: 162a f5be 7da3 dd3e 8c15 233f 87ed 6ebf
000001d0: 9f26 22bf d0ee 163f c860 ee3e a969 be3e
000001e0: 8563 813e b33d 143d 020f 98bf d040 403f
000001f0: e6d0 ec3e a4a2 863d 244b 30bd 9551 2dbf
00000200: 53cd bdbd 387b 61bd 0e64 15bf 9865 44be
00000210: f195 263e d9d6 26bf 0dac 1f3d 2940 d83e
00000220: 2e03 663e e382 bd3c d301 26be 806a 2d3f
00000230: e533 14be 5e5a d83e 916e 623f 31fb 49be
00000240: f9e2 32bf 726d 743e 93d1 443f 28b9 e3be
00000250: 59e4 29bf ec43 0a3f e88c debe 9005 3abe
00000260: a4f2 adbe 04db a53e 3b52 293f bf76 a2bf
00000270: 04dd 12be a779 e93d 57fb fdbc 819f 62bd
00000280: 6b92 60bf 735c 01bf d786 87be 2808 6cbf
00000290: 36a0 bbbe 7172 abbe 16a6 0cbf eb7e 933d
000002a0: 731a 47bf a509 9d3e 49e7 a8be b17b 1fbd
000002b0: df11 0e3f 157d f53e 90cb 3cbc 11cc b63e
000002c0: 69c0 e33e 5059 22bf 57ae 5b3f 9b6a 5ebf
000002d0: 11af 20bf dc34 ecbe 623f b63d bdaf 913e
000002e0: f841 c53d dcec 4a3e 3312 0f3e a969 a0bf
000002f0: 8bdb 4f3f 5241 163d 8ec7 253f b355 023f
00000300: b8c5 8a3d 66f8 15be c2de 2ac0 3d7c 133f
00000310: 0980 2a3e 7ede 81bd 466a 9f3e e855 fc3c
00000320: e8f7 233e 0b5d 933e c14a 953e 1eae 23bd
00000330: 0e14 ae3e 25f1 003f c399 d13e 0dda c33e
00000340: 1ee1 a93e 867a 2a3e 8661 dd3e 24fb c9bd
00000350: 25da ba3e 4382 543e 982c 673e 1b95 c23e
00000360: 084f 2a3e 409c 5bbf 7dd5 803e 7bef 3ebf
00000370: 9495 a53e ed00 0cbe c437 953d 0de3 d6bb
00000380: fbfb 46bf 9589 c63e 50f0 a6bf f59d 903e
00000390: e587 d53c 10f1 17be 6c52 9c3d 54c7 c23e
000003a0: e9da ce3d 64c7 5c3f 3be9 6d3f c1fe cfbe
000003b0: 6d3b f23d a9ce f93a ea01 1bbf 0421 aabe
000003c0: 5a80 cdbe baf9 9d3e 930f c1bf e5a3 1d3f
000003d0: 79bd ee3e aa23 95be fe8d 673e 521e f1be
000003e0: 0348 6bbe e584 063e 76e0 87be 96c4 033e
000003f0: 08a4 8e3f 6d54 3c3f 3d7d 30bf 5177 2ebf
-0.011698295 0.3294432 -2.4528759 -0.90820044 0.9587915 0.31048933 0.25506243 0.24993663
-0.13204055 0.1727612 -1.388339 -0.54652405 0.5491629 -0.36739066 -0.55555236 0.2844994
0.18027033 0.33144394 -0.9459787 -1.406878 1.3518647 0.2260062 -0.11456074 0.3300203
-0.27967986 0.2798628 0.5803044 -1.6876105 -0.9718092 0.084297046 0.2307093 0.56522727
-0.343711 -0.08098817 -0.4557273 -0.19952954 -0.057613514 0.11674772 0.51755595 0.27962685
0.16066064 0.15518442 0.5077094 -0.33893198 -0.6201086 -0.4560692 0.44967115 0.55831337
-0.29663438 0.04175938 -0.024346152 0.7568132 0.5826292 0.42535725 0.2833378 -0.3606111
0.5138645 -0.2646686 -0.35003456 -0.36121643 0.11159951 0.033955164 0.18625908 0.25926125
0.39474362 -0.059692048 0.418083 0.059861176 0.7565556 0.721974 -0.025748132 -0.94818926
0.12903614 0.2390585 0.37843904 0.45042512 -0.033688262 -0.5075361 -0.7654842 -0.58269393
-0.85174364 0.8132005 0.8293408 -0.35951337 -1.4009659 0.1967844 0.24270459 -0.51168185
0.3630558 0.10309944 0.96973807 0.002085938 -0.18124542 0.43262106 -0.054255527 -0.4951299
0.036196135 0.04866492 -0.095057234 -0.8160691 0.7423946 0.46213183 0.32890677 0.23682773
-0.7032391 0.6525541 0.6057118 -0.53632915 -1.0583584 0.60640377 0.20828333 0.572158
-0.47883672 0.43288794 0.6370475 -0.9333119 -0.6334018 0.5895815 0.46558213 0.37189987
0.2527124 0.036191653 -1.187958 0.75098896 0.46253127 0.0657399 -0.04304041 -0.6770261
-0.09267678 -0.05504915 -0.58355796 -0.1917938 0.16268136 -0.6517158 0.03898244 0.4223645
0.2246215 0.0231337 -0.16211633 0.6774063 -0.14472921 0.42256445 0.8844996 -0.19724728
-0.6987758 0.23869875 0.76882285 -0.444772 -0.66364056 0.5400989 -0.43466878 -0.18166184
-0.33974183 0.32393658 0.661411 -1.2692488 -0.14342123 0.114001565 -0.031003637 -0.055327896
-0.87723416 -0.5053169 -0.26470062 -0.92199945 -0.3664567 -0.3348575 -0.5494093 0.07201942
-0.77774733 0.3067142 -0.32988957 -0.03893632 0.5549602 0.47946993 -0.011523142 0.35702565
0.44482735 -0.6341753 0.85812896 -0.8688142 -0.6276713 -0.46134079 0.08898808 0.2845439
0.09631723 0.19816917 0.13971786 -1.2532245 0.8119437 0.036683388 0.6475762 0.50912017
0.06775993 -0.14645538 -2.669846 0.5761145 0.16650404 -0.06341265 0.31135768 0.030802682
0.16012537 0.28781924 0.29158595 -0.039960973 0.33999676 0.5036796 0.40937623 0.38252297
0.33179563 0.16648301 0.43238467 -0.098623544 0.36494556 0.20752816 0.22575605 0.38004383
0.1663171 -0.85785294 0.2516288 -0.7458417 0.32340682 -0.13672228 0.07286027 -0.0065578283
-0.7772824 0.38776842 -1.3042088 0.28245512 0.026065776 -0.14838052 0.07632908 0.380427
0.101003475 0.86241746 0.92934006 -0.4062405 0.11827741 0.0019058782 -0.60549796 -0.33228314
-0.40136987 0.3085459 -1.5082878 0.6157821 0.4662893 -0.29128772 0.2261276 -0.47093445
-0.22976689 0.13136633 -0.26538438 0.1286796 1.1143808 0.73566324 -0.689411 -0.6815081

fc1.bias f4 [64]
00000000: d298 863e e6cb 5e3e 6968 b53e 7f65 cd3e
00000010: 1a3e 97be ac70 66be ed60 d33e 6527 7ebe
00000020: 92c1 0abd aa97 8d3e 3172 d4bc f31b e5be
00000030: b17b 2b3e eeab 3abe 84c1 093f 4d9c 3cbe
00000040: aa4b 833e b69d 90be fbc3 143f 1695 3a3f
00000050: 60b1 f4be 5798 69be ba6d 09bf 2b50 66bd
00000060: bfac bd3a 3bb6 8bbe 6ead 79be 481f 0cbf
00000070: 240b 7dbd 8123 fbbd 8027 973e 9663 d2bb
00000080: b031 5c3e d3fe cd3e e005 343c e4ff c53e
00000090: 1716 7f3e ab98 243f 97be abbe 05a9 20bf
000000a0: 001e a53e 7485 00bf f4db 823e ab00 b13e
000000b0: 9cca 163d 8b6a 953e b199 9b3e 1ec3 d93d
000000c0: edd8 d03d 8c31 d7be 97c3 cfb9 9bd4 c3ba
000000d0: ea55 ccbd f759 133f 966c 2abe 081a 69be
000000e0: 41ae f83e 126e 943e 9755 543f 913a f43e
000000f0: 5320 94be 5e4f 1ebe a6ac 45be 885f f5bd
0.26288468 0.21757469 0.3543122 0.40116498 -0.29539567 -0.22503918 0.41284886 -0.24819715
-0.03387601 0.27654773 -0.025933357 -0.44747886 0.16746403 -0.18229648 0.53810906 -0.18418999
0.25643665 -0.28245324 0.5811154 0.7288374 -0.47791576 -0.2281202 -0.53683054 -0.056228798
0.0014471038 -0.27287468 -0.24382564 -0.5473523 -0.061778203 -0.12262631 0.29522324 -0.006420563
0.2150333 0.40233478 0.010987729 0.38671792 0.2491077 0.6429545 -0.33543846 -0.62757903
0.3224945 -0.50203633 0.25558436 0.34570822 0.036814317 0.29182848 0.30390695 0.10632919
0.10197625 -0.4202999 -0.00039627842 -0.0014940681 -0.09977324 0.5755915 -0.16642985 -0.22763836
0.48570445 0.28990227 0.829431 0.47700933 -0.2893091 -0.15459964 -0.19304141 -0.11981112

fc2.weight f4 [64, 64]
00000000: 5205 1c3d cf70 103e e30f 493d 5626 433c
00000010: 804d dd3d befd 3abe 3019 823e e4ab a4bc
00000020: cedd bebc 6564 963e 94b1 cabe ca85 4f3e
00000030: b73b fe3d f632 a1be aa16 01be 0ed4 29bf
00000040: 1efb 8c3e 66d6 353f de98 d23d 0aa3 ec3c
00000050: 3c19 563f 28a4 c73e 6ba9 d43e 2bb9 a9be
00000060: b000 cbbf 9f7d c0bd eb19 15be 2664 203f
00000070: 7586 183e 7e66 42bf bca1 c13e 8a18 1a3f
00000080: d505 89be 06f9 013f 037f 293e 152e ce3d
00000090: 1ee3 3a3f a21e 08be 309d 353d a70f 333f
000000a0: 78ba fabd 39f2 363e a4d6 963d 7b63 c53e
000000b0: f951 f9be 8ff6 f53e b06a 30be c91d bcbe
000000c0: 4fb0 373e 45e0 423e 12a6 16be 2a8b 8cbf
000000d0: 8243 eb3c 32f3 c4bd 6b16 3fbe fb29 023e
000000e0: 76d7 603d f7ca 23be feff ae3a cb30 28be
000000f0: 5433 87bd a6a8 b23d 57f9 49be ce5c 85be
00000100: b0e6 ccbd 250b 2b3e ba0a e63d 85a5 253d
00000110: a350 453e 99fc ecb9 4b2b a03d 9621 043f
00000120: 00e7 a93d c6e9 a33e 5643 3f3d e808 5d3f
00000130: e27d 513e c26b 05be d3e1 02be b2a5 12c0
00000140: 75a0 a53e d308 6c3f d36f d03d 0364 f13d
00000150: b3d5 613f 0698 663e 896c 983e 19c3 bdbe
00000160: 758d c6bf 134b ae3e e2df 7ebd 491b 0a3f
00000170: b422 9a3e f2dc 863c 4589 0f3e 9be5 113f
00000180: e991 3abe ae33 dc3e 2c87 be3c 6efc 573e
00000190: 044e 1b3f f8bb c1bc ca4f af3d 32ab 2d3f
000001a0: 6b58 993d 45a5 e53e a7cd cdbc 4316 b43e
000001b0: e6fd 00be 4099 4f3e 0a66 09be fe6a d73d
000001c0: 22ea 033f 4bf8 9f3f 1ac6 303f 65e6 78bf
000001d0: 972e 113f 9ec8 e63d 5776 ecbe bffc 97be
000001e0: dd41 f83c 4ca6 5dbe b917 e63b 0d9e 343c
000001f0: 546a 7c3c b58e c23e f9e0 a9be 4222 503e
00000200: 92e4 123e 3975 853e c784 853e 885b fb3d
00000210: 2217 8d3e 55bb 9b3e 46c4 8e3e 4045 843e
00000220: d60e a43e e3fb 293e fe7b a1be a444 963f
00000230: ece1 ca3e 3cce 81be 2155 e33c 4ed5 2dbf
00000240: 3e8c 1c3f 6c85 7b3f 6669 4dbe e3de 2a3c
00000250: 3c8d 8b3f 02ec 073f 829d 793f 812f cabe
00000260: f08d 67bf a2e6 213e af9c 8a3e 9e84 273f
00000270: 1510 8f3e 5688 9cbe 790d 3e3e 01f3 1a3f
00000280: 6217 04bd efd3 eb3e bc87 5abe 4d68 203e
00000290: 7089 003f 5c25 e23c ccf7 ca3d 337b 493f
000002a0: 07c9 3c3e d2b5 ea3e 3b63 c13d 52e6 01bd
000002b0: 82bb 9cbe c765 e13e d695 26bf 6954 853e
000002c0: 5057 253e e8d4 943f 79c7 9abe 7b59 acbf
000002d0: 22e6 063f 5eba 053e a65e 18bf bca2 c03e
000002e0: b6e7 a33e 30dc d9be a587 c6bd 6384 ef3d
000002f0: 0993 b13e 441f fc3e c95a d43c 0ef4 aa3e
00000300: 2a8d 483e b34e d43e ad11 463e 791f 38be
00000310: ff1c 813e 6ba6 c63e 799b ca3e d85b 373e
00000320: 02ad 4d3c 09be 803e 9aad 96be fb04 9a3f
00000330: 2679 1ebe 6a8e 4ebd b887 91bd 2153 3cbf
00000340: 9e0b c33e 51c0 073f 161e bdbe ff47 03be
00000350: 9f96 873f 0648 cc3e 39a6 a13f 00b5 bbbe
00000360: 1b25 8bbf 5413 b0bc 7e29 f53d 2d62 0c3f
00000370: c0cc 593e 42ce 73bf 7ba5 033f d2ad e7be
00000380: 8694 553e 48ca ab3e f90d d1bf 7d13 f63a
00000390: 473c c73e 66ae e43d 0690 fe3d ca66 3b3f
000003a0: e19c d73c fd71 ed3c 3aac 133d cb3b 2bbd
000003b0: 06d8 c4bd 4649 d53e d0df bfbe ab15 dc3e
000003c0: 6624 5bbe 39a7 6b3f 20d2 46bf 1545 1dc0
000003d0: 7caf d63e 8b4c 73bd 0004 33bf 1faa 753f
000003e0: 9af2 343e e7f2 e7be 5926 a03c 6cb1 b5bd
000003f0: 06f6 593e 678e bb3e ba3e 7d3e bdd1 013e
0.03809101 0.14105533 0.049087416 0.0119109955 0.108057976 -0.18260857 0.25409842 -0.020101495
-0.023299124 0.2937347 -0.39588606 0.2026588 0.124137335 -0.31484193 -0.12606302 -0.66339195
0.27535337 0.7103027 0.10283063 0.028886337 0.83632255 0.3899243 0.41535506 -0.33149084
-1.5859585 -0.0939896 -0.14560668 0.62652814 0.14895041 -0.7593764 0.37818706 0.60193694
-0.26762262 0.50770605 0.16552357 0.10067383 0.73002803 -0.13292935 0.04433936 0.6994576
-0.12242597 0.17865838 0.07365158 0.3855246 -0.48695353 0.48039672 -0.17228198 -0.36741474
0.1793835 0.19030865 -0.14711788 -1.097997 0.028718714 -0.09616698 -0.18660896 0.12711327
0.05489298 -0.15995394 0.0013351438 -0.16424863 -0.06601587 0.087235734 -0.19724022 -0.26047367
-0.10004938 0.1670347 0.11232515 0.040441055 0.19269042 -0.00045201628 0.078207575 0.5161375
0.08296013 0.32014292 0.046695076 0.86341715 0.20458177 -0.13029388 -0.12781458 -2.2913632
0.32348981 0.92200965 0.10177579 0.11786654 0.88216704 0.2251893 0.29770306 -0.3706291
-1.5511919 0.34041652 -0.06222523 0.53947884 0.301046 0.016462777 0.14017208 0.56990975
-0.18219723 0.43008178 0.023257814 0.21092388 0.6066592 -0.0236492 0.085601404 0.6783935
0.074875675 0.44852653 -0.025122477 0.35173234 -0.12596855 0.20273304 -0.13417831 0.10518454
0.51529133 1.2497648 0.6905228 -0.97226554 0.56711715 0.112687334 -0.46184036 -0.29685017
0.030304844 -0.21645468 0.007021871 0.01102401 0.01540621 0.37999502 -0.33179453 0.20325568
0.14345005 0.26065996 0.26077864 0.122733176 0.2755671 0.3041636 0.2788412 0.25834084
0.3204257 0.16599993 -0.3153991 1.1739697 0.3962549 -0.25352657 0.027750554 -0.679036
0.6115149 0.9825046 -0.20059738 0.010429117 1.0902476 0.53094494 0.9750596 -0.39489368
-0.90450954 0.15810636 0.27072665 0.6543673 0.27941957 -0.30572766 0.18559827 0.60527045
-0.032248862 0.4606013 -0.21340841 0.15664788 0.50209713 0.027605705 0.09910545 0.7870361
0.18436061 0.45841843 0.09442755 -0.03171379 -0.30611807 0.44022962 -0.6507238 0.26040962
0.16146588 1.1627474 -0.3023031 -1.3464807 0.52694905 0.13059375 -0.5951942 0.37624156
0.3201272 -0.42550802 -0.09693841 0.11695173 0.3468249 0.49242604 0.025922196 0.33389324
0.195851 0.41466293 0.1934268 -0.17980756 0.25217435 0.38798842 0.3957174 0.1790613
0.012553455 0.25144985 -0.29429322 1.203277 -0.15475902 -0.050428785 -0.071059644 -0.73564345
0.380948 0.53027827 -0.36937016 -0.12820433 1.0592841 0.398987 1.2628852 -0.3666153
-1.0870699 -0.021493591 0.11970805 0.54837304 0.21269512 -0.952366 0.5142438 -0.45249802
0.20857438 0.33552766 -1.6332389 0.0018774119 0.38913175 0.11166076 0.12429814 0.7320372
0.026319923 0.028985018 0.03605292 -0.04180507 -0.09611516 0.41657466 -0.37475443 0.4298528
-0.21400604 0.92052037 -0.77664375 -2.4573414 0.4193076 -0.05939917 -0.6992798 0.9596271
0.1767067 -0.45302507 0.019549536 -0.08871731 0.21285257 0.36632082 0.2473096 0.12677665

fc2.bias f4 [64]
00000000: b52f 133d bc0e 31be bec5 d7bd 086d 1c3e
00000010: c83b bb3e 3d67 d83d 19e2 0abd 9080 3e3d
00000020: f141 583c f0c7 aebd 5fd0 613d d106 05be
00000030: 94c3 05be 93bc 543e 9980 863d b4c9 c5bc
00000040: adbe 973d 2405 a2bc 4689 b53e 0030 a43d
00000050: 2e30 55ba e559 f33d 2eba aabd a2a2 dcbd
00000060: de3a 24bc 6f62 b43d 12ae a73d f80d 303e
00000070: 8508 093e d9f4 d43c 2396 2d3f 36e3 243f
00000080: c64c 023d 1f22 203e ff67 f0bc 2025 6a3d
00000090: d06d d23e aedd 4f3d 9ee9 1fbe 5380 063e
000000a0: b9f4 6c3d 6f7b 66bd a3f5 fbbb 308d 013f
000000b0: ec26 2b3c e87b c83d 8a42 d6bd dc87 b0bb
000000c0: a94a c23d 8b8c c7bd ebe8 37bd c22d e7bd
000000d0: b00c 013e b19f 973e bc23 913c d3dc 6e3d
000000e0: 0c8a b53e 025b 7f3d 2967 463d 100a 433e
000000f0: c51c 21be c38a 05be 0eb5 993e 75c6 b83d
0.03593417 -0.17290777 -0.10535763 0.15275967 0.36569047 0.10566566 -0.03390703 0.046509326
0.013199315 -0.08534229 0.05513036 -0.12990882 -0.13062888 0.2077506 0.06567497 -0.024144031
0.074094154 -0.019777842 0.35456294 0.08016968 -0.00081324845 0.118823804 -0.08336292 -0.10773207
-0.010023801 0.08807837 0.08187498 0.17192829 0.13382156 0.025995659 0.67807215 0.64409196
0.031811498 0.15638016 -0.029346464 0.05716431 0.41099405 0.05074852 -0.15616462 0.1313489
0.057850573 -0.05627006 -0.0076891943 0.5060606 0.010446291 0.09789258 -0.1046191 -0.0053872894
0.094868965 -0.09743603 -0.044899862 -0.112880245 0.12602496 0.29614022 0.017717235 0.058316063
0.35456884 0.06234265 0.048438225 0.19046807 -0.15733631 -0.13041215 0.30020946 0.09022228

fc3.weight f4 [4, 64]
00000000: 3e20 17bf 408d c3be c278 36bf f47d 55bf
00000010: 7940 b43e af06 5abf e53e 743d 32d0 2fbf
00000020: b803 c7bd 4c0a 1d3d 2f8d 3dbf 1636 93bd
00000030: 2a07 2dbd 8d50 f5be a1ac 58be bb5c 663f
00000040: 9eda 17bf ae02 17bf e329 333f 26c8 18bf
00000050: 7e98 9abf c863 f7bf 243b 86be e02d 3bbc
00000060: b09a 36bf 7e5d d33e 94b2 a7be 7e63 cdbe
00000070: 2a87 3dbf fd0b 60bf 2ee3 633f 09dd 503f
00000080: 5850 3abf d880 c5be 1945 e43f ed26 91bf
00000090: d5ce 123f 45dd 05bf ac59 923b 178a b33e
000000a0: 2bf0 22bf e2fa 02bf 3a4f 01bf 0505 1e3f
000000b0: 989d 84bf ccf3 05bd daa0 983d c332 1fbf
000000c0: 91de 47bf 4712 81be d2df fabe dcb3 f2be
000000d0: a842 333f 7872 0b40 9d6c 2ebf 8d09 aebf
000000e0: 6ebd 9c3e 758e 25bf e30c 50bf c9c2 68bf
000000f0: 9e3d d7bd 348c 2bbf b795 4e40 d1d0 30bf
00000100: 28ae bbbe e3cf 03bf 31c5 98be 4dcf 74bf
00000110: 8538 bb3e 9055 11bf 2163 6b3a e309 83bf
00000120: 2afc e33d 3ed9 a3bd b64f 51bf 6d01 f0bc
00000130: ef4d 873d 4020 99be 1c6b 6dbf e180 403f
00000140: 1439 4dbf 45dc 1abf 9cef 433f d7b2 2abf
00000150: c342 483e 12ed a6bf d6c0 3bbf d7d7 4dbd
00000160: d917 02bf b1da c43e 093d 43bf 7ac1 51be
00000170: 750b 43bf c90e 63bf 4c0b 283f 7866 583f
00000180: ce0d 22bf ae22 1cbf f289 c63f 4811 183e
00000190: 5ed8 e93e 1b42 40bf bece 6e3d 8b45 e53e
000001a0: 4d41 3ebf 3b80 57bf 7ed2 32bf df58 723f
000001b0: 3e3f e2bf 601a 2f3c ccfa d03d c380 20bf
000001c0: c77a 1fbf 03b2 3dbf ff48 a6be 478a dabe
000001d0: ea29 873e a135 9b3f f0a1 30bf 0440 60bf
000001e0: 8ff9 f53e 270d 1cbf 525a 30bf 378a 2cbf
000001f0: 6623 0dbd f3fe 04bf a52c 5440 e07c e3be
00000200: ea37 83bf ee6b 2bbf 6828 1dbf 44d7 09bf
00000210: 5afc 263f 5994 31bf 39a5 1b3d 7ccf edbe
00000220: 58ab 903d aadd 983d 54ac 16bf c08a 0a3d
00000230: c2a2 333c e88a 2ebf 2dab 7dbf 4dd6 0b3e
00000240: 8d75 0abf b1c3 5abf 3c31 c23e b951 21bf
00000250: c885 0f3f 0f33 54be df16 41bf bb29 5b3c
00000260: 9b28 0bbf 0a11 923f 0cb7 87bf 60ba 36bf
00000270: 382d 2fbf 753e 2cbf a8c2 473f d646 703f
00000280: 4c7f eebe da98 01bf f0a8 ba3f c99d f7be
00000290: 9ae8 353f ba3f 1fbf 8d00 fe3c 1b4e 96bf
000002a0: 15dd 2abf 5b36 34bf 6f7d 3ebf d045 5f3f
000002b0: 59c5 53bf c0fa 4dbb 5513 72bd 0554 3ebf
000002c0: 457f 0bbf 6c0f 28bf 8038 31bf a641 42bf
000002d0: 7899 003e e9a5 02bf 7d64 1bbf 226a 90bf
000002e0: 65ce 1b3f bb18 37bf 3d15 3cbf 8ab5 1fbf
000002f0: 81b6 253d 9911 24bf 514c 5c40 f9f9 1dbf
00000300: bd49 2dbf 045d f93d 7898 89be a9e9 0fbf
00000310: 9b50 ba3e 2bfb e1be 50fe 283d 5f06 91bf
00000320: 5047 933c f0bc 33bd bccb 31bf 8012 23bb
00000330: f2ca f4bd 35ce 2dbf 3180 20be 6c68 5e3f
00000340: 471e 81bf 88f7 2dbf 58c1 593f 98e2 38bf
00000350: 5835 91be 992d dfbf 3e06 1bbf 00e5 1bbb
00000360: 056a 20bf d580 b43d bcbe 57bf afea 8abe
00000370: 40c9 24bf 397d 2dbf 3988 833f 3bc5 283f
00000380: 0990 17bf f6fe 17be b1dc ad3f fdeb 6bbf
00000390: 972e 2e3f 4287 4cbf 5cda 8dbd afc9 cfbe
000003a0: 53d0 2dbf 9137 14bf 6f26 28bf 1dff da3e
000003b0: b612 2abf 9064 f3bd 1868 2d3d 6eb9 2ebf
000003c0: 7a4e 33bf c720 39be 36de 15bf deca 1fbf
000003d0: f6ea 1f3f c9c6 ee3f 780a 5ebf a63c 5bbf
000003e0: 65de 113f c28f 69bf f69a 5cbf 248c 0bbf
000003f0: 0ca8 2b3c 17c6 58bf 8c9a 4c40 88aa 11bf
-0.5903357 -0.38193703 -0.7127801 -0.83395314 0.3520544 -0.8516645 0.059630293 -0.68677056
-0.09717506 0.038339898 -0.74043554 -0.071880504 -0.04224316 -0.47913018 -0.21159603 0.89985245
-0.5931796 -0.58988464 0.6998579 -0.596804 -1.2077787 -1.9327326 -0.26216996 -0.011424512
-0.71329784 0.41282266 -0.32753432 -0.4011497 -0.7403437 -0.8751829 0.89018524 0.8158727
-0.72778845 -0.38574862 1.7833587 -1.1340004 0.5734685 -0.52290756 0.004466256 0.35066292
-0.6364772 -0.51164067 -0.50511515 0.6172641 -1.0360594 -0.032703206 0.07452555 -0.6218683
-0.78073984 -0.25209257 -0.48998886 -0.47402847 0.70023584 2.1788616 -0.6813448 -1.3596665
0.30613273 -0.646705 -0.81269664 -0.9092222 -0.105097994 -0.6701081 3.2278879 -0.6906863
-0.36656308 -0.51489085 -0.29837945 -0.95628816 0.36566558 -0.56771183 0.000897931 -1.0237392
0.11132081 -0.0800042 -0.81762254 -0.029297555 0.066066615 -0.29907417 -0.9274156 0.75196654
-0.8016522 -0.60492355 0.7653749 -0.6667914 0.19556718 -1.3041098 -0.7334112 -0.05025467
-0.5081764 0.38448098 -0.7626501 -0.20483962 -0.7618936 -0.88694435 0.6564224 0.84531355
-0.63302314 -0.60990417 1.5510848 0.14850342 0.45672888 -0.7510087 0.058302633 0.4477962
-0.7431839 -0.8418004 -0.69852436 0.94666857 -1.767555 0.010687441 0.10204086 -0.62696475
-0.6229672 -0.7409975 -0.32477567 -0.42683622 0.26399165 1.2125741 -0.68997097 -0.8759768
0.4804196 -0.6095757 -0.6888782 -0.673984 -0.034457587 -0.5195152 3.315225 -0.4443121
-1.0251439 -0.6696156 -0.6138978 -0.53844094 0.6522881 -0.69366986 0.037999365 -0.4644736
0.07063931 0.07464154 -0.588567 0.03382373 0.010964097 -0.68180704 -0.9908932 0.13655968
-0.5408562 -0.8545485 0.37928188 -0.63015324 0.5606351 -0.20722602 -0.75425524 0.013376649
-0.54358834 1.141145 -1.0602736 -0.71378136 -0.68428373 -0.672828 0.78031397 0.9385809
-0.46581495 -0.5062386 1.4582806 -0.48362568 0.71058047 -0.62206614 0.031006122 -1.1742586
-0.66743594 -0.7039544 -0.74410146 0.872159 -0.82723004 -0.0031429976 -0.059100468 -0.74346954
-0.5449107 -0.6564853 -0.6922684 -0.7588142 0.12558544 -0.5103441 -0.6070021 -1.1282389
0.6086181 -0.7152211 -0.7346991 -0.6238638 0.040457252 -0.6408935 3.442158 -0.61709553
-0.6769064 0.121759444 -0.26874137 -0.5621591 0.36389622 -0.44136938 0.041258156 -1.1330069
0.01797834 -0.043881357 -0.694515 -0.0024882853 -0.11952771 -0.6789277 -0.15673901 0.86878085
-1.0087365 -0.6795583 0.85060644 -0.72220755 -0.2836101 -1.743579 -0.605564 -0.0023787618
-0.6266177 0.08813635 -0.8427541 -0.27132174 -0.64369583 -0.677692 1.0275947 0.6592595
-0.59204155 -0.14843354 1.3582975 -0.92156965 0.6803984 -0.7989389 -0.06926414 -0.4058356
-0.67896 -0.5789729 -0.65683645 0.4277276 -0.664348 -0.11884415 0.0423356 -0.68251693
-0.7004162 -0.1807891 -0.5854219 -0.62418926 0.62467897 1.8654414 -0.86734724 -0.8563942
0.5697997 -0.9123498 -0.8617395 -0.5451071 0.010477077 -0.8467726 3.1969328 -0.56900835

fc3.bias f4 [4]
00000000: 47d7 293e 3143 503e df85 be3e be8f 713e
0.16586028 0.20338131 0.3721151 0.2358999
