model.pth (torch_old, 28463 bytes, 6 tensors)

fc1.weight f4 [64, 37]
00000000: d9b7 bf3d b960 973d 91c8 28bf cfc0 cebe
00000010: e960 cfbd af82 f73d d3ad 5cbe daf6 9bbe
00000020: fe90 d33e e035 c2be 341a 863e 3fd1 54be
00000030: a839 60bf 254a 0abe 3403 2a3e e0cc 80bd
00000040: 737e dabe 0709 b93e 53e6 01bf b26c e8be
00000050: 22a8 21bc 9681 843e 1245 13bf 3fa3 4cbc
00000060: 862c 9dbd 51ef 3d3e f6e4 2bbd 33ef 33bf
00000070: eb5e 8cbd bb02 983c 2c53 04be 3dbf bb3e
00000080: dc28 02bf 0059 4fbe 3e59 59be c8d7 34be
00000090: e416 1cbe 700e 4c3d 2a71 8e3e 3771 c53d
000000a0: cc4d 3f3d eef5 f5bd 37c4 2dbd 0959 223e
000000b0: e322 1fbd 7e26 c6bd 0fd7 033e ba2d 033f
000000c0: 6a49 393d a050 cebe 9f20 70bd a620 183e
000000d0: 5fe6 6a3e c805 5abd 718d 9f3d ed2d ae3d
000000e0: d956 94be 6b0c 31bd db66 1ebe c1d4 303d
000000f0: 05c1 e73d bd63 2a3e 6ea6 e13d fd75 d63d
00000100: b51e 313d efd1 11be ae11 6ebe 605e d53d
00000110: 1803 8b3e a574 0d3e 28c7 aabd 579e d1bc
00000120: a922 c33c 7053 673d 0f94 a13d f4bb b43d
00000130: d265 b6be 7f59 113f c98c b93d 898e 023e
00000140: 8a73 77be ef8b 993e dcbb 89be 7c1f 24be
00000150: 2c86 69be 22a3 2abe c008 7a3e 0c3f 8f3d
00000160: 27e2 e13d aa55 a0be 2412 0d3e 1de1 8b3e
00000170: 03ba 16be 4c56 cb3e ad18 e63d b1de 98be
00000180: 6076 c3bc 99a5 5d3d 0ecb 9cbe b7a4 41be
00000190: 9fdf 993e 9386 393e ecfa 41bd 8cac 1abf
000001a0: 5d58 84bd 04ca fe3a eb44 89be 8f9b 49be
000001b0: d85d 40bf f663 743d 390d 26be 6f4c f03e
000001c0: 74a5 ecbe bc84 bdbd 27c0 13bf 13db 3bc0
000001d0: 3d7c 12bd 1023 85bd e058 4e3e 4bc7 243e
000001e0: 9df4 913e c9cb d1bb 79ba b33d a624 9f3c
000001f0: f2de 293c 2966 d7bd 38a9 9cbd a0d0 43bd
00000200: 606d f63d 92ea e7bd 1b47 c13d 8ac5 b0bd
00000210: 12ea fdbc 4887 553d c1f3 113e ac42 d5bd
00000220: c725 58bd ecc6 5a3e 1181 023e 2f6e 083e
00000230: d9e2 f23d 58a3 673e bbb7 f13d b36b fbbc
00000240: 0684 89bd 5b69 12bd 8367 4e3c 8ece b2bc
00000250: b35d 33be e8dc 9e3b 76f0 99be 9279 78be
00000260: b8d4 063d 0f49 283e 0d3f a6be ef42 97be
00000270: eff6 b73e 2b49 ae3d b7cb d83d 4423 45be
00000280: 2e45 11be 5ed8 0c3d acfd a7bc 7ed1 8fbe
00000290: 0006 66bd 5251 72bd c3a0 03bc e6db c2bc
000002a0: 1cc7 2dbe b3f0 143d 74b3 d63c abb2 f5bc
000002b0: c5b1 333e 826b a0bd 43cc 343d a788 183d
000002c0: c88c 113d aa7f a13e 46a4 0a3e d3ed 03bf
000002d0: 95b5 c6bd c8c4 a93e 49b1 603f 915a b03c
000002e0: 04f1 393d b126 07bc e5f0 c0bd c22c 193d
000002f0: 4f53 1c3e 5f9b 5b3d eef3 633d 26df 103d
00000300: 5204 473e 9455 233e 69c9 b83d 6787 b8bd
00000310: f5eb a8bd a7c4 c83d 5529 c33d 56cc 423e
00000320: 1e24 22bd 0304 29bc 4e24 56bd 9a02 453e
00000330: 36ca 26bc 4741 a03d 6645 a03d 8d55 4b3d
00000340: eaf5 603e d652 183e 5f35 0dbb 5c2e 1e3e
00000350: ade1 4e3d 7839 553d 1cb0 a83d 0099 c03e
00000360: ef1e a7be c9e1 c9be 52f8 87be eb3b 40c0
00000370: 4254 2dbd 027e 893b fbbc a23e 8fc4 223e
00000380: dcab 40bd 9fb4 4ebf 0ce6 18bf 254e 17be
00000390: 304e 05bd c265 8b3e 6432 31be 876f 733e
000003a0: 38fa 273e 0d1a a03e 71d2 bcbd f531 35be
000003b0: b83b 4a3e 9e13 54bd 7ff0 f63c 8d40 3b3d
000003c0: c713 9fbe 30fa e7bd 03cc 383d 8a41 7d3d
000003d0: 3e1f 3e3e a0ba 2fbf 4338 2a3f b39b 1cbc
000003e0: 24ff f03b cf30 15be 391b 0fbd a392 8abd
000003f0: d1ec 38be d50e c83e 0cbe 78be 1fb0 08be
0.09361238 0.07391495 -0.6593104 -0.40381476 -0.10125906 0.12085473 -0.21550684 -0.3046177
0.41321558 -0.37931728 0.26191866 -0.20782946 -0.87587976 -0.13504846 0.16602784 -0.06289077
-0.42674598 0.361397 -0.5074207 -0.45395428 -0.009866746 0.25880116 -0.5752727 -0.012490093
-0.07674508 0.18548323 -0.0419664 -0.70286864 -0.06854042 0.01855599 -0.12922353 0.3666934
-0.50843596 -0.20248795 -0.2122545 -0.17660439 -0.15243107 0.049818456 0.27820712 0.09640735
0.046705052 -0.12009798 -0.042423453 0.15854277 -0.03885163 -0.096753106 0.12875007 0.5124165
0.04523603 -0.40295887 -0.05862486 0.14856204 0.22939442 -0.05322817 0.0779065 0.085048534
-0.2897251 -0.043224733 -0.15468924 0.043171648 0.113161124 0.1663961 0.11018072 0.10471723
0.043242175 -0.1424024 -0.23248932 0.10418391 0.27150798 0.13814028 -0.08338767 -0.025588198
0.023820238 0.056476057 0.07889568 0.08824912 -0.35624558 0.56777185 0.09060056 0.12749685
-0.24165168 0.29989573 -0.26901138 -0.16027635 -0.22805089 -0.16663793 0.244174 0.06994447
0.11029463 -0.31315356 0.13776451 0.27320185 -0.14719395 0.39714277 0.11235175 -0.298574
-0.023860157 0.054113004 -0.30623668 -0.1891049 0.30053422 0.18117742 -0.04735844 -0.60419536
-0.064621665 0.0019438867 -0.26810393 -0.19688247 -0.75143194 0.059665643 -0.16215982 0.46933314
-0.4621998 -0.09253833 -0.57715076 -2.9352462 -0.035763014 -0.06500828 0.2015109 0.16091649
0.28506938 -0.006402467 0.08775801 0.019426655 0.010368096 -0.105175324 -0.076494634 -0.047806382
0.120325804 -0.113240376 0.094373904 -0.086314276 -0.030995402 0.052130967 0.14253141 -0.10413107
-0.052770402 0.21364945 0.12744547 0.13323282 0.11859674 0.22620904 0.11802622 -0.030691003
-0.067146346 -0.035745006 0.012597921 -0.021827009 -0.17516212 0.0048481114 -0.3006627 -0.24265125
0.03291771 0.1643412 -0.3246998 -0.29543254 0.35930583 0.085100494 0.105857305 -0.19251734
-0.14186546 0.03438603 -0.020506702 -0.28089517 -0.056158066 -0.059159584 -0.008033934 -0.023786496
-0.16970485 0.03636236 0.026208617 -0.029992422 0.17548282 -0.078330055 0.04414011 0.037239697
0.03553465 0.31542712 0.13539228 -0.51534766 -0.09702603 0.33157945 0.87770516 0.02152756
0.045395866 -0.008248971 -0.09420947 0.0373962 0.15266155 0.05361497 0.05565255 0.03536906
0.19435242 0.15950614 0.09022791 -0.09010201 -0.0824813 0.098031335 0.09529368 0.1902326
-0.039585225 -0.010315898 -0.052280717 0.19239274 -0.010180047 0.07824951 0.07825737 0.049642134
0.21968809 0.1487535 -0.0021546704 0.15447372 0.05050819 0.05205676 0.08236715 0.3761673
-0.32640788 -0.39430073 -0.2655664 -3.003657 -0.042316683 0.0041959295 0.31784806 0.15895294
-0.047038898 -0.80744356 -0.59726024 -0.14775904 -0.03254527 0.27226073 -0.17304379 0.23773013
0.16404045 0.31269875 -0.09219826 -0.17694838 0.19749343 -0.05177652 0.030143974 0.045715857
-0.31069776 -0.11327016 0.045116436 0.06183008 0.18566605 -0.6864414 0.664921 -0.009558606
0.007354634 -0.145694 -0.03493807 -0.0676625 -0.18059088 0.39073816 -0.24291247 -0.13348435

fc1.bias f4 [64]
00000000: 0e7e a8bc f732 4f3d bfd3 f4bd 0fbf 4e3c
00000010: cfb4 cd3d 333a fd3c 0e7a 55bd 1d26 093e
00000020: 2e33 e7bd bbd6 143d 31ea 2b3e 488e 373e
00000030: a0ef 5f3e 2e9f 883e 706c fb3d 25aa ebbd
00000040: 93df 4e3d 25a6 31bd 3f37 1d3d 32b6 04be
00000050: 36c6 8bbc ff0f c53d 8883 f03d 63f6 99bc
00000060: 5806 cfbd 7dd8 803c 0110 8f3d 3164 34be
00000070: ae22 473e efcb 433d 9210 21bc 68e6 46be
00000080: 0b0d 813e abab e6bc 0cbb 0c3c 4641 313e
00000090: eb69 a6bd 16ef 2b3d 7b47 703d 2c06 d0bd
000000a0: 9e1d c5bc 237e 963a 762f 01bd 635d 5a3e
000000b0: d581 f53d 261d 5cbd 1593 d13d 1e0d 17be
000000c0: 97f8 11be 5e67 8e3e 53cc b3bd 716b 373e
000000d0: 551f abbc 2ee5 1fbd 142e 01be c73a d73d
000000e0: acb4 703d 6595 603d 8d09 a4bd 4832 c5bd
000000f0: 000d e03d 22ac a3bc ad63 243e 1934 393d
-0.02056792 0.050585713 -0.1195445 0.012618794 0.10044252 0.03091154 -0.052118354 0.13393445
-0.112890586 0.036337595 0.16788556 0.1792537 0.21868753 0.26683944 0.12276542 -0.11507062
0.050506186 -0.04337134 0.038382765 -0.12960127 -0.017062288 0.09622192 0.117438376 -0.018794244
-0.10108632 0.01572823 0.069854744 -0.17616345 0.19446823 0.047801908 -0.009830611 -0.1942383
0.25205263 -0.02815803 0.008589517 0.17310056 -0.08125671 0.041976057 0.05866192 -0.10157427
-0.024061974 0.0011481683 -0.031539403 0.21324687 0.11987654 -0.053738736 0.10233132 -0.14751098
-0.14254986 0.27813238 -0.08779206 0.1791208 -0.020888964 -0.039036922 -0.12615234 0.10509258
0.058766052 0.054829974 -0.08009634 -0.09628731 0.109399796 -0.01997954 0.16053648 0.0452157

fc2.weight f4 [64, 64]
00000000: 8d3f eb3e 6b1a 893c b346 953c 31d6 303d
00000010: 99b5 8e3c 65b9 203e 2adb 5ebe 958b b9be
00000020: d796 24be a28f 90bc a15a 433e d507 933d
00000030: fd74 443e 3448 303e 9bea d3bd 8dd4 13bf
00000040: 2e77 45bd 6e1a 983e f41d aabd 79ee 36be
00000050: ee1d 20be 5e5f b4be 2d63 3f3e 5608 e5bd
00000060: e964 5b3e bc98 b5be 9bd2 b03e 50de 623e
00000070: 6161 213d 1ce8 e23b f719 c83e db5e 16be
00000080: f302 743e a0cd 88be 1b65 29be 8757 c23d
00000090: eb33 58be 38c4 bb3d db5c d33e 8f76 dabe
000000a0: 8ded e43d 8c3b c9bd 899b 8b3e e76e f2bd
000000b0: 247f 4c3d 5753 223e af9d 90be a47c b23a
000000c0: 3682 b9be b2c5 e2be c770 7fbd 0935 083e
000000d0: 627c 48be 6fac b43d 1f59 fa3e 915d ae3e
000000e0: 3876 1fbd 0640 9bbd 9ac7 923c f9a5 303e
000000f0: a35c 163c 1f5b 9e3e 5dfe 33be 1afe 1ebe
00000100: 7288 dcbe 7d75 8abd 4554 8fbe cf31 41be
00000110: d4c6 9f3e fd04 a63d 7802 67be e28a dabd
00000120: 96d6 85bd d530 643c 9cc7 23bd 826e 0b3e
00000130: a334 853d cffe e53c bb92 a0be 108e 68be
00000140: 83b0 cdbd 148b 1d3e 02ad 883d 259e 8fbd
00000150: 669c 8a3e 25e0 2c3e bc68 193d b056 8fbf
00000160: 9e50 c0bd e8e5 18be 64ed 98bf 751d 8abf
00000170: 6bca bb3e 3fda 783c 5854 c33e 9839 fbbe
00000180: e309 13bb a1ee aa3d a596 b6be c5ad a2be
00000190: 5a81 54be 003f ccbe 5e68 f23e a198 043e
000001a0: 06d2 8a3e eb4f d2bd 1f8f 3abb 2407 24bf
000001b0: f3cc 41be 1a7e 9dbe 5a11 cabd 0d11 babd
000001c0: ad97 273e 3b9a d73d 5e19 e6bd 9e39 803e
000001d0: e5ce 1b3d 2155 23bf 6bb8 8cbe 2258 43be
000001e0: 40c0 12be bc82 3b3d 0be1 5d3c 04e6 173f
000001f0: 5a0f 1ebd 63b5 0cbe 4834 17be 7d41 58bd
00000200: ac36 063e dbe1 a9be d070 0b3c ee08 d73d
00000210: d16e 4ebd 0018 63be 68bf 42be 9972 a9be
00000220: 4d17 2a3e d02a 4ebb 09ec 1f3f 1f5e 0bbe
00000230: 8832 f9bc 8f03 cd3e a9a2 aabe 874d 9bbd
00000240: 32ee 1d3b 6022 b03d ec7d 923d aef6 00bd
00000250: 661c abbe d170 373e 0a52 9fbe eaf1 dabc
00000260: d68f f0bc 3011 cb3b f2c6 7e3d 4241 21bd
00000270: 8ffb ed3d 5fe9 b53e 89b3 713b 4f39 b43e
00000280: 6146 913c c0b0 afbc 9649 91be 08e9 b3bd
00000290: 3d6a d43e 6bed 01be f1aa 403e e19c 7ebe
000002a0: 5e14 45be 6eae ae3d 0184 233e f5b7 66be
000002b0: 340a 13ba 2baa 1fbd ed7b 50bd bd30 cf3a
000002c0: 925c 053e 0aff 1fbe 5128 c1bc aa34 36be
000002d0: 2f58 08bd 8f84 0fbe 139f 9a3e be88 cdbd
000002e0: 9f9d cd3d e72d 8dbe f957 a93d 1dbb 003e
000002f0: 2ed8 a8bc cc58 ccbd bd31 b83d 4aae 013d
00000300: 25db 0cbe 0c36 25bd ba65 323e 7a93 22bd
00000310: d986 5cbe f8f7 50bd 0e66 9abe 4231 68be
00000320: 4d4b 73bd 735c 48be 8703 4ebe 2a5c b6bd
00000330: 6c7e 54be a579 743d e5f7 5b3d 44a9 0cbe
00000340: 86c9 65be 1a84 9e3d 093c bdbd aa5f 0d3d
00000350: 9511 793d 50ee 4c3d 8463 90be 28ce 313e
00000360: 2c9f 693d a9ce b2bd 20e1 623e 1630 a73e
00000370: 723d 34bd 8a54 b1be ad7a b7be 13a0 f7bd
00000380: 2ff8 b53d 492a babe 0884 33bc a879 62bc
00000390: 91a6 fabe 4e75 b1bd 32bc cd3e ab80 9e3d
000003a0: 5169 92be e417 80bc 8652 0e3e 26dc f7bc
000003b0: 901a 17bf ca68 27be 47cd 14be d135 bfbd
000003c0: 2b18 dc3e f1dd 87bc 0ac5 39be c109 c0bd
000003d0: f6b9 103d 4c32 583d be7c a13e b910 c63d
000003e0: 41a2 f13d 65d0 dbbe fa96 29bd 3ef1 a7be
000003f0: fdc1 a6be 8476 3a3e 5f05 9bbd 604c 15be
0.45946923 0.01673623 0.018222189 0.04317302 0.017420577 0.15695722 -0.21763292 -0.36239305
-0.16073166 -0.017646614 0.19077541 0.07179228 0.19185252 0.17215043 -0.10347482 -0.577462
-0.04820936 0.29707664 -0.08306494 -0.17864408 -0.15636417 -0.3522901 0.18690176 -0.111832306
0.21425213 -0.3546809 0.3453568 0.22155118 0.03939951 0.0069246422 0.3908231 -0.14684622
0.2382925 -0.2671938 -0.16542475 0.09489351 -0.21113555 0.09168285 0.4128178 -0.42668578
0.11178122 -0.09825811 0.272671 -0.11837559 0.04992594 0.15852104 -0.28245303 0.0013617468
-0.36232156 -0.44291455 -0.062363412 0.13301481 -0.19578698 0.088219516 0.4889612 0.3405576
-0.0389311 -0.07580571 0.017917443 0.17250814 0.00917736 0.30928895 -0.175775 -0.1552662
-0.4307285 -0.0676069 -0.2799398 -0.18866657 0.3120638 0.0810642 -0.22559536 -0.10671021
-0.0653507 0.013927658 -0.039985284 0.13616374 0.0650418 0.028075604 -0.31361946 -0.22710443
-0.100434326 0.15385085 0.066736236 -0.070125856 0.27072448 0.1688238 0.037453398 -1.119833
-0.093903765 -0.14931452 -1.1947446 -1.079024 0.3667787 0.015188753 0.38150287 -0.49067378
-0.0022436313 0.08346296 -0.35661808 -0.317732 -0.20752469 -0.39891815 0.4734525 0.12948848
0.2711336 -0.102691494 -0.0028466654 -0.64073396 -0.18925838 -0.3076027 -0.09866591 -0.090852834
0.16366453 0.10527464 -0.11235307 0.25043958 0.038039107 -0.6380177 -0.2748445 -0.19076589
-0.1433115 0.045778975 0.013542424 0.5933535 -0.03858886 -0.13741069 -0.14766037 -0.05279683
0.13106793 -0.33180127 0.008510783 0.1049975 -0.05039865 -0.22177124 -0.19018328 -0.33095244
0.16610451 -0.0031458624 0.62469536 -0.13610123 -0.030419603 0.40041777 -0.33327225 -0.075831465
0.0024098274 0.086003065 0.07152924 -0.031485252 -0.33420104 0.1791413 -0.31117278 -0.026726682
-0.029365461 0.0061971173 0.062201448 -0.039368875 0.116202466 0.3552961 0.0036880693 0.35199973
0.017733755 -0.021446586 -0.28376454 -0.087846816 0.41487303 -0.12688224 0.18815209 -0.24864532
-0.1924605 0.085293636 0.15968324 -0.22531112 -0.00056091254 -0.038980644 -0.050899435 0.0015807372
0.13023594 -0.15624633 -0.023578795 -0.17793527 -0.033287223 -0.14015411 0.3019949 -0.10035847
0.100398295 -0.27574083 0.082687326 0.12571378 -0.020610895 -0.09977874 0.08993862 0.031660356
-0.13755472 -0.040334746 0.17421618 -0.039691426 -0.21535815 -0.05101773 -0.30155987 -0.2267504
-0.059397984 -0.19566517 -0.20118533 -0.08904298 -0.20751351 0.05968632 0.053703208 -0.13736445
-0.22440156 0.0774004 -0.092399664 0.03451506 0.060807783 0.05003196 -0.28200924 0.17363799
0.057036564 -0.087308235 0.22156191 0.32653874 -0.04400391 -0.3463481 -0.35835782 -0.120910786
0.08885228 -0.36360386 -0.010956772 -0.01382295 -0.48955205 -0.08664952 0.40182644 0.07739385
-0.28595975 -0.015636392 0.13898668 -0.030256342 -0.59024906 -0.16348568 -0.14531432 -0.093364365
0.4298719 -0.016585322 -0.1814157 -0.093768604 0.035333596 0.05278234 0.31540483 0.09671158
0.117985256 -0.4293243 -0.041403748 -0.3280124 -0.32569876 0.18209273 -0.07569384 -0.14579916

fc2.bias f4 [64]
00000000: 1bd0 f2bd 149e d3bd 1b0e ce3d 8c39 84bd
00000010: ca3a e83d 344b 14be 0470 a3bd 8487 7e3e
00000020: a22b 8c3e f341 163f 9342 853d aaa8 333d
00000030: 51ba b0bc 5bd1 4dbe 4faf dcbd 8be4 e8bd
00000040: 22bb 133e 2d8a 17be 0a7e 89be b8f8 503d
00000050: f921 2e3d 93f9 883e 0c22 7dbe deab e73d
00000060: 8457 cebd 7026 03be a775 ff3b e56c 35bc
00000070: 2b51 bebc a70e e03e c524 4c3d 2b8f 5cbe
00000080: 47a6 6abd e205 093c 5863 1b3c 630d 15be
00000090: 79a0 a8bd 0a1d f3bd 8ea5 ff3c 048b 8b3e
000000a0: 306f debd b6b2 293f 6350 863e cd40 1ebe
000000b0: 2147 593b defa 02be e970 d43e a0fa dcbd
000000c0: 44f8 213e e56a f5bd ec44 77be 3ca1 1e3f
000000d0: 96c3 613d 79d2 04be ba0c 663e 9738 85bc
000000e0: 01dd 21be 1bc6 35be 480f 3d3d 0cc6 acbd
000000f0: 5908 b63d 2800 ba3e 470f 113d 7d5a 8abd
-0.11856099 -0.103328854 0.10061284 -0.06456289 0.11339338 -0.14481813 -0.0798035 0.24856383
0.2737704 0.5869438 0.06506839 0.043862022 -0.021573218 -0.20099394 -0.10775625 -0.11371716
0.14426854 -0.14798804 -0.26853973 0.051018447 0.042512868 0.2675291 -0.24720019 0.11312078
-0.10075286 -0.12807631 0.0077960077 -0.011073326 -0.023232063 0.4376118 0.049839754 -0.21538989
-0.05728748 0.008363219 0.009484135 -0.14555888 -0.08233733 -0.11870773 0.031206872 0.27254498
-0.10861051 0.66288316 0.26233205 -0.15454407 0.0033153968 -0.1279101 0.41492394 -0.107899904
0.15817362 -0.11983279 -0.24147385 0.61964774 0.055118166 -0.12970914 0.22465792 -0.016262336
-0.15806963 -0.17751352 0.04615715 -0.08436212 0.08888311 0.36328244 0.03541496 -0.067555405

fc3.weight f4 [4, 64]
00000000: f144 ccbe d04e 62be 4e11 b43e 6c0d 30bf
00000010: 863a d63d ecf7 8ebf df08 033f 2b8b f43e
00000020: 4399 973e 4964 f03d b70e a8bd a08d cabf
00000030: 2403 c93e be76 74bc 7051 0cbd 9c98 7dbf
00000040: fcb7 2cbc 250e 00bf 8f79 78bf 95d2 ae3e
00000050: a0b4 a13d 565b be3e 07ed 2bbe 72ab 263e
00000060: 4b2d 44be fb55 08bf 41ff 42be 7429 8abe
00000070: 3a71 773e 0517 d73d b8cf 82bf 96d0 083e
00000080: d1e8 5c3e 2025 9b3e 0935 bc3d 3a8c 0a3e
00000090: 7244 da3e 5d43 41bf 3f6b 56bc 207c 3c3e
000000a0: be22 c03e 29ce 2c3e 56ed 473e 3396 1abd
000000b0: 7f41 c53e fa38 5abf fdba 6d3e 78f7 0a3f
000000c0: e824 50bd 18ab 673e bb56 d2be 34f0 643e
000000d0: 8ec0 dc3e 37e4 06c0 78dc e53d cd30 d23e
000000e0: 1ebc 21bf 2a92 1ebd 0a81 b23e 28b7 c6be
000000f0: 45f6 8b3d 97c1 023e a523 193e cb8b a5bf
00000100: 79e5 97be c824 9fbe 78cb e73e 6345 313e
00000110: e5a6 4f3e d224 b83d 2174 bb3e ba81 3a3e
00000120: ec21 413e 578a f13d 66cd f93d 4ee2 3a3d
00000130: 10d4 5ebe 9515 2ebf 86e6 1bbd f813 303f
00000140: 927f 61bb 12ef a2bb c3d4 56bf a2be 8f3e
00000150: ef57 613e b0b9 8d3e 304d 5dbe 823c 6d3e
00000160: 4207 e9bc b47c 53bc 8f36 d8bd c7d8 d4be
00000170: b9c8 c23e 66ad 093e 64bd 12bf 22ca 16bf
00000180: 7377 2ebf 5117 df3d 667a 213e 7a9f 133f
00000190: 4a19 cd3e 8bbb 35bf f591 6b3f a55b f43d
000001a0: 3151 bb3e 6f28 523e 800d 113e 49cd 8e3e
000001b0: 47a7 c03e 1cf4 cdbe 92c8 333e 1bed 023f
000001c0: dc2b 663d 47c2 183e e457 2fbe 05c0 453e
000001d0: bf48 d33e 35ef f1be 03f6 073e 1580 a33e
000001e0: abf0 9d3d 1c07 10bf cf02 a83e d3a8 6bbf
000001f0: 0b34 0dbe 3504 cc3d 8fb2 6abf affa 0cbf
00000200: 0bfd dabe 3caa 093e 52b4 083f d475 9f3d
00000210: fa2b 033f 39f9 cabd 76f6 5e3e 388a 4b3e
00000220: e82b b23d 0067 033e ba0a 293e e8d7 883e
00000230: 7e43 bf3e d1cd 60bf 8724 d4bd 5c5c 7b3b
00000240: d567 6d3e 6b66 47bf 9397 4dbd 7add c23d
00000250: 95c1 fd3c 055a a73e bef6 76be edd3 7b3e
00000260: a3fa 153d 27da 09be c3f3 b83d 4940 21bf
00000270: 51e0 0a3f abc3 373e 5d12 2e3e a7f6 16bf
00000280: aaea 01bf 7efb 863e 015f 783e 75c6 5f3f
00000290: dbf3 66bf 60f3 02bf 455a 09bf ee05 c23d
000002a0: 86ac 593f c6d2 1a3e 3c07 0e3e d3c2 77bf
000002b0: e85a 483e 28ff 57bf dcd3 1b3e 9820 4c3f
000002c0: f10a b33c 2777 f53e fd80 73be a692 893e
000002d0: 873a a03d 8bb2 6e3e 65d6 193e a135 823d
000002e0: 996b b1bf ae3b cfbe 7ad6 8abf ff6a 203f
000002f0: 26d5 0a3e cb90 6b3e d4f6 80bf 7e34 683d
00000300: 645d 02be 37ea 5f3e 62fe 13be 8be9 adbe
00000310: 8afc 193e 1e5d 203e 579f 2dbf 7ecc 9c3e
00000320: 4710 a13d 6bab 5e3e a955 bc3e 8fe7 393d
00000330: bc38 fa3d 1cfa 293e 3105 323d 0600 d83e
00000340: 2160 b33d 38b9 e0bb 70d7 5dbe a3a5 303f
00000350: 7a70 033f 7875 673e a5a2 b2bd 2459 4b3d
00000360: 8ed7 92bc a50e 063e d56b 1abe 6f9a b23e
00000370: 92d3 df3e e8cb eb3c 79c7 afbe 8684 ad3e
00000380: 940c c63e c065 113f d8ba 433e b499 1a3f
00000390: a2f6 d13e ac94 32bf 72a1 093e 5d41 473d
000003a0: e043 37be 4c12 913e db08 bf3d a036 07be
000003b0: d89a 9c3e a018 42bf dfbf 133e 426e 1ebf
000003c0: 0515 953e a280 91bf 68a2 223e a797 203e
000003d0: 6922 a13d b612 a2bd 6c65 1a3e 1927 bc3e
000003e0: 39fd 52bf 9447 69bd e11c 76bf 6911 a8be
000003f0: f53e c3bf bab9 0f3e 9d3a 11be 9a91 1fbf
-0.39896348 -0.22100377 0.35169452 -0.6877048 0.10460381 -1.116941 0.5118541 0.47762427
0.29609117 0.11737878 -0.08205932 -1.582447 0.3926021 -0.0149208885 -0.034257352 -0.9906099
-0.010541912 -0.5002158 -0.97060484 0.34145036 0.078957796 0.3717906 -0.16789638 0.16276339
-0.19157903 -0.53256196 -0.19042684 -0.2698475 0.24164286 0.105024375 -1.0219641 0.13360819
0.21573187 0.30301762 0.09189803 0.13530055 0.42630345 -0.75493413 -0.013087093 0.18406725
0.37526506 0.16875519 0.1952413 -0.037740897 0.38526532 -0.8524319 0.23215862 0.5428386
-0.050816447 0.22623861 -0.41081795 0.22357255 0.43115658 -2.1076791 0.11223692 0.41052857
-0.6317767 -0.03871361 0.34864074 -0.38811612 0.068340816 0.12769161 0.14955004 -1.2933286
-0.2966726 -0.3108275 0.45272422 0.17311625 0.20278509 0.08991398 0.36612037 0.1821355
0.18860596 0.11793964 0.1219738 0.045625977 -0.21760583 -0.6800168 -0.03806164 0.6878047
-0.0034408313 -0.004972347 -0.839184 0.2807513 0.220062 0.2768073 -0.21611476 0.23167613
-0.028445844 -0.0129081495 -0.10557281 -0.41571638 0.38043764 0.13445053 -0.5732024 -0.5890218
-0.68151015 0.10893119 0.15769348 0.57665217 0.40058357 -0.7098929 0.9201959 0.11931542
0.36585382 0.20523237 0.14165306 0.27890995 0.37627622 -0.40225303 0.1755698 0.51143044
0.05619417 0.14917861 -0.17123371 0.19311531 0.41266438 -0.47252813 0.1327744 0.31933656
0.077119194 -0.5626085 0.32814643 -0.9205448 -0.13789384 0.0996174 -0.9167871 -0.5507001
-0.4277118 0.13443846 0.53400147 0.07786146 0.5123898 -0.09910817 0.21773705 0.19876945
0.08699781 0.1283226 0.16507998 0.26727223 0.3735618 -0.8781405 -0.103585295 0.003835461
0.2318414 -0.7789065 -0.05019338 0.095148996 0.030976096 0.32685867 -0.24117562 0.24592562
0.03661598 -0.13462125 0.09030869 -0.62988716 0.5424853 0.17945735 0.16999193 -0.5897011
-0.50748694 0.26363748 0.24254991 0.87412196 -0.90215844 -0.5115261 -0.53653365 0.09473787
0.85028875 0.15119466 0.13869947 -0.96781653 0.19565928 -0.8437371 0.15217537 0.79737234
0.021855803 0.4794247 -0.23779674 0.26869696 0.07823663 0.23310296 0.15023191 0.06357885
-1.3860961 -0.4047522 -1.0846703 0.62663263 0.13557872 0.23004453 -1.0075326 0.056690685
-0.12730938 0.2186669 -0.14452508 -0.33967242 0.15037742 0.15660521 -0.6782126 0.30624765
0.07864433 0.21745078 0.36784104 0.045386847 0.122178525 0.16599315 0.043461982 0.42187518
0.087585695 -0.0068580173 -0.21664214 0.6900274 0.513435 0.22603405 -0.08722428 0.049645558
-0.01792505 0.13091524 -0.15080197 0.34883448 0.43716103 0.028783754 -0.34331873 0.3389017
0.3868147 0.56795883 0.19114244 0.6039078 0.41008478 -0.69758105 0.13440493 0.04864632
-0.17896986 0.28334272 0.09327861 -0.13204432 0.30586886 -0.75818825 0.14428662 -0.6188699
0.291176 -1.1367381 0.15882266 0.15682851 0.07867891 -0.07913725 0.15077752 0.3674858
-0.8241764 -0.056953028 -0.96137816 -0.32825783 -1.5253588 0.14035693 -0.14182515 -0.62331545

fc3.bias f4 [4]
00000000: 0e06 ee3e 15f1 d23e c46d 703e 312a c43e
0.46488994 0.41199556 0.23479372 0.3831344
